{"modelTopology": {"node": [{"name": "Min/reduction_indices", "op": "Const", "attr": {"value": {"tensor": {"dtype": "DT_INT32", "tensorShape": {"dim": [{"size": "3"}]}}}, "dtype": {"type": "DT_INT32"}}}, {"name": "decoder/conv4/bias", "op": "Const", "attr": {"value": {"tensor": {"dtype": "DT_FLOAT", "tensorShape": {"dim": [{"size": "1"}]}}}, "dtype": {"type": "DT_FLOAT"}}}, {"name": "decoder/conv4/kernel", "op": "Const", "attr": {"dtype": {"type": "DT_FLOAT"}, "value": {"tensor": {"dtype": "DT_FLOAT", "tensorShape": {"dim": [{"size": "3"}, {"size": "3"}, {"size": "32"}, {"size": "1"}]}}}}}, {"name": "decoder/conv3/bias", "op": "Const", "attr": {"dtype": {"type": "DT_FLOAT"}, "value": {"tensor": {"dtype": "DT_FLOAT", "tensorShape": {"dim": [{"size": "32"}]}}}}}, {"name": "decoder/conv3/kernel", "op": "Const", "attr": {"value": {"tensor": {"dtype": "DT_FLOAT", "tensorShape": {"dim": [{"size": "3"}, {"size": "3"}, {"size": "64"}, {"size": "32"}]}}}, "dtype": {"type": "DT_FLOAT"}}}, {"name": "conv5/conv5_3/required_space_to_batch_paddings/strided_slice_2/_16__cf__67", "op": "Const", "attr": {"value": {"tensor": {"dtype": "DT_INT32", "tensorShape": {}}}, "dtype": {"type": "DT_INT32"}}}, {"name": "conv5/conv5_1/strided_slice/stack", "op": "Const", "attr": {"value": {"tensor": {"dtype": "DT_INT32", "tensorShape": {"dim": [{"size": "1"}]}}}, "dtype": {"type": "DT_INT32"}}}, {"name": "conv5/conv5_1/strided_slice_1/stack_1", "op": "Const", "attr": {"value": {"tensor": {"dtype": "DT_INT32", "tensorShape": {"dim": [{"size": "1"}]}}}, "dtype": {"type": "DT_INT32"}}}, {"name": "conv5/conv5_1/strided_slice/stack_1", "op": "Const", "attr": {"value": {"tensor": {"dtype": "DT_INT32", "tensorShape": {"dim": [{"size": "1"}]}}}, "dtype": {"type": "DT_INT32"}}}, {"name": "decoder/conv2/bias", "op": "Const", "attr": {"value": {"tensor": {"dtype": "DT_FLOAT", "tensorShape": {"dim": [{"size": "64"}]}}}, "dtype": {"type": "DT_FLOAT"}}}, {"name": "decoder/conv2/kernel", "op": "Const", "attr": {"value": {"tensor": {"dtype": "DT_FLOAT", "tensorShape": {"dim": [{"size": "3"}, {"size": "3"}, {"size": "128"}, {"size": "64"}]}}}, "dtype": {"type": "DT_FLOAT"}}}, {"name": "decoder/conv1/bias", "op": "Const", "attr": {"value": {"tensor": {"dtype": "DT_FLOAT", "tensorShape": {"dim": [{"size": "128"}]}}}, "dtype": {"type": "DT_FLOAT"}}}, {"name": "decoder/conv1/kernel", "op": "Const", "attr": {"value": {"tensor": {"dtype": "DT_FLOAT", "tensorShape": {"dim": [{"size": "3"}, {"size": "3"}, {"size": "256"}, {"size": "128"}]}}}, "dtype": {"type": "DT_FLOAT"}}}, {"name": "aspp/conv2/bias", "op": "Const", "attr": {"value": {"tensor": {"dtype": "DT_FLOAT", "tensorShape": {"dim": [{"size": "256"}]}}}, "dtype": {"type": "DT_FLOAT"}}}, {"name": "aspp/conv2/kernel", "op": "Const", "attr": {"dtype": {"type": "DT_FLOAT"}, "value": {"tensor": {"dtype": "DT_FLOAT", "tensorShape": {"dim": [{"size": "1"}, {"size": "1"}, {"size": "1280"}, {"size": "256"}]}}}}}, {"name": "concat/axis", "op": "Const", "attr": {"dtype": {"type": "DT_INT32"}, "value": {"tensor": {"dtype": "DT_INT32", "tensorShape": {}}}}}, {"name": "conv5/conv5_3/bias", "op": "Const", "attr": {"value": {"tensor": {"dtype": "DT_FLOAT", "tensorShape": {"dim": [{"size": "512"}]}}}, "dtype": {"type": "DT_FLOAT"}}}, {"name": "conv5/conv5_1/required_space_to_batch_paddings/strided_slice_1/_14__cf__65", "op": "Const", "attr": {"value": {"tensor": {"dtype": "DT_INT32", "tensorShape": {"dim": [{"size": "2"}]}}}, "dtype": {"type": "DT_INT32"}}}, {"name": "conv5/conv5_2/bias", "op": "Const", "attr": {"value": {"tensor": {"dtype": "DT_FLOAT", "tensorShape": {"dim": [{"size": "512"}]}}}, "dtype": {"type": "DT_FLOAT"}}}, {"name": "conv5/conv5_1/bias", "op": "Const", "attr": {"dtype": {"type": "DT_FLOAT"}, "value": {"tensor": {"dtype": "DT_FLOAT", "tensorShape": {"dim": [{"size": "512"}]}}}}}, {"name": "conv4/conv4_3/bias", "op": "Const", "attr": {"value": {"tensor": {"dtype": "DT_FLOAT", "tensorShape": {"dim": [{"size": "512"}]}}}, "dtype": {"type": "DT_FLOAT"}}}, {"name": "conv4/conv4_3/kernel", "op": "Const", "attr": {"value": {"tensor": {"dtype": "DT_FLOAT", "tensorShape": {"dim": [{"size": "3"}, {"size": "3"}, {"size": "512"}, {"size": "512"}]}}}, "dtype": {"type": "DT_FLOAT"}}}, {"name": "conv4/conv4_2/bias", "op": "Const", "attr": {"value": {"tensor": {"dtype": "DT_FLOAT", "tensorShape": {"dim": [{"size": "512"}]}}}, "dtype": {"type": "DT_FLOAT"}}}, {"name": "conv4/conv4_2/kernel", "op": "Const", "attr": {"value": {"tensor": {"dtype": "DT_FLOAT", "tensorShape": {"dim": [{"size": "3"}, {"size": "3"}, {"size": "512"}, {"size": "512"}]}}}, "dtype": {"type": "DT_FLOAT"}}}, {"name": "conv4/conv4_1/bias", "op": "Const", "attr": {"value": {"tensor": {"dtype": "DT_FLOAT", "tensorShape": {"dim": [{"size": "512"}]}}}, "dtype": {"type": "DT_FLOAT"}}}, {"name": "conv4/conv4_1/kernel", "op": "Const", "attr": {"dtype": {"type": "DT_FLOAT"}, "value": {"tensor": {"dtype": "DT_FLOAT", "tensorShape": {"dim": [{"size": "3"}, {"size": "3"}, {"size": "256"}, {"size": "512"}]}}}}}, {"name": "conv3/conv3_3/bias", "op": "Const", "attr": {"value": {"tensor": {"dtype": "DT_FLOAT", "tensorShape": {"dim": [{"size": "256"}]}}}, "dtype": {"type": "DT_FLOAT"}}}, {"name": "conv3/conv3_3/kernel", "op": "Const", "attr": {"value": {"tensor": {"dtype": "DT_FLOAT", "tensorShape": {"dim": [{"size": "3"}, {"size": "3"}, {"size": "256"}, {"size": "256"}]}}}, "dtype": {"type": "DT_FLOAT"}}}, {"name": "conv3/conv3_2/bias", "op": "Const", "attr": {"value": {"tensor": {"dtype": "DT_FLOAT", "tensorShape": {"dim": [{"size": "256"}]}}}, "dtype": {"type": "DT_FLOAT"}}}, {"name": "conv3/conv3_2/kernel", "op": "Const", "attr": {"value": {"tensor": {"dtype": "DT_FLOAT", "tensorShape": {"dim": [{"size": "3"}, {"size": "3"}, {"size": "256"}, {"size": "256"}]}}}, "dtype": {"type": "DT_FLOAT"}}}, {"name": "conv3/conv3_1/bias", "op": "Const", "attr": {"value": {"tensor": {"dtype": "DT_FLOAT", "tensorShape": {"dim": [{"size": "256"}]}}}, "dtype": {"type": "DT_FLOAT"}}}, {"name": "conv3/conv3_1/kernel", "op": "Const", "attr": {"value": {"tensor": {"dtype": "DT_FLOAT", "tensorShape": {"dim": [{"size": "3"}, {"size": "3"}, {"size": "128"}, {"size": "256"}]}}}, "dtype": {"type": "DT_FLOAT"}}}, {"name": "conv2/conv2_2/bias", "op": "Const", "attr": {"value": {"tensor": {"dtype": "DT_FLOAT", "tensorShape": {"dim": [{"size": "128"}]}}}, "dtype": {"type": "DT_FLOAT"}}}, {"name": "conv2/conv2_2/kernel", "op": "Const", "attr": {"dtype": {"type": "DT_FLOAT"}, "value": {"tensor": {"dtype": "DT_FLOAT", "tensorShape": {"dim": [{"size": "3"}, {"size": "3"}, {"size": "128"}, {"size": "128"}]}}}}}, {"name": "conv2/conv2_1/bias", "op": "Const", "attr": {"value": {"tensor": {"dtype": "DT_FLOAT", "tensorShape": {"dim": [{"size": "128"}]}}}, "dtype": {"type": "DT_FLOAT"}}}, {"name": "conv2/conv2_1/kernel", "op": "Const", "attr": {"value": {"tensor": {"dtype": "DT_FLOAT", "tensorShape": {"dim": [{"size": "3"}, {"size": "3"}, {"size": "64"}, {"size": "128"}]}}}, "dtype": {"type": "DT_FLOAT"}}}, {"name": "conv1/conv1_2/bias", "op": "Const", "attr": {"value": {"tensor": {"dtype": "DT_FLOAT", "tensorShape": {"dim": [{"size": "64"}]}}}, "dtype": {"type": "DT_FLOAT"}}}, {"name": "conv1/conv1_2/kernel", "op": "Const", "attr": {"value": {"tensor": {"dtype": "DT_FLOAT", "tensorShape": {"dim": [{"size": "3"}, {"size": "3"}, {"size": "64"}, {"size": "64"}]}}}, "dtype": {"type": "DT_FLOAT"}}}, {"name": "conv1/conv1_1/bias", "op": "Const", "attr": {"value": {"tensor": {"dtype": "DT_FLOAT", "tensorShape": {"dim": [{"size": "64"}]}}}, "dtype": {"type": "DT_FLOAT"}}}, {"name": "conv1/conv1_1/kernel", "op": "Const", "attr": {"value": {"tensor": {"dtype": "DT_FLOAT", "tensorShape": {"dim": [{"size": "3"}, {"size": "3"}, {"size": "3"}, {"size": "64"}]}}}, "dtype": {"type": "DT_FLOAT"}}}, {"name": "Reshape/_0__cf__51", "op": "Const", "attr": {"value": {"tensor": {"dtype": "DT_FLOAT", "tensorShape": {"dim": [{"size": "1"}, {"size": "1"}, {"size": "1"}, {"size": "3"}]}}}, "dtype": {"type": "DT_FLOAT"}}}, {"name": "input", "op": "Placeholder", "attr": {"shape": {"shape": {}}, "dtype": {"type": "DT_FLOAT"}}}, {"name": "aspp/conv1_2/required_space_to_batch_paddings/strided_slice_1/_2__cf__53", "op": "Const", "attr": {"value": {"tensor": {"dtype": "DT_INT32", "tensorShape": {"dim": [{"size": "2"}]}}}, "dtype": {"type": "DT_INT32"}}}, {"name": "conv5/conv5_1/required_space_to_batch_paddings/crops/0/0", "op": "Const", "attr": {"value": {"tensor": {"dtype": "DT_INT32", "tensorShape": {}}}, "dtype": {"type": "DT_INT32"}}}, {"name": "conv5/conv5_1/required_space_to_batch_paddings/strided_slice_2/stack", "op": "Const", "attr": {"dtype": {"type": "DT_INT32"}, "value": {"tensor": {"dtype": "DT_INT32", "tensorShape": {"dim": [{"size": "1"}]}}}}}, {"name": "conv5/conv5_1/kernel", "op": "Const", "attr": {"value": {"tensor": {"dtype": "DT_FLOAT", "tensorShape": {"dim": [{"size": "3"}, {"size": "3"}, {"size": "512"}, {"size": "512"}]}}}, "dtype": {"type": "DT_FLOAT"}}}, {"name": "conv5/conv5_2/kernel", "op": "Const", "attr": {"value": {"tensor": {"dtype": "DT_FLOAT", "tensorShape": {"dim": [{"size": "3"}, {"size": "3"}, {"size": "512"}, {"size": "512"}]}}}, "dtype": {"type": "DT_FLOAT"}}}, {"name": "conv5/conv5_3/kernel", "op": "Const", "attr": {"value": {"tensor": {"dtype": "DT_FLOAT", "tensorShape": {"dim": [{"size": "3"}, {"size": "3"}, {"size": "512"}, {"size": "512"}]}}}, "dtype": {"type": "DT_FLOAT"}}}, {"name": "aspp/conv1_5/bias", "op": "Const", "attr": {"value": {"tensor": {"dtype": "DT_FLOAT", "tensorShape": {"dim": [{"size": "256"}]}}}, "dtype": {"type": "DT_FLOAT"}}}, {"name": "aspp/conv1_5/kernel", "op": "Const", "attr": {"value": {"tensor": {"dtype": "DT_FLOAT", "tensorShape": {"dim": [{"size": "1"}, {"size": "1"}, {"size": "1280"}, {"size": "256"}]}}}, "dtype": {"type": "DT_FLOAT"}}}, {"name": "Mean/reduction_indices", "op": "Const", "attr": {"value": {"tensor": {"dtype": "DT_INT32", "tensorShape": {"dim": [{"size": "2"}]}}}, "dtype": {"type": "DT_INT32"}}}, {"name": "aspp/conv1_4/bias", "op": "Const", "attr": {"value": {"tensor": {"dtype": "DT_FLOAT", "tensorShape": {"dim": [{"size": "256"}]}}}, "dtype": {"type": "DT_FLOAT"}}}, {"name": "aspp/conv1_4/required_space_to_batch_paddings/strided_slice_1/_10__cf__61", "op": "Const", "attr": {"value": {"tensor": {"dtype": "DT_INT32", "tensorShape": {"dim": [{"size": "2"}]}}}, "dtype": {"type": "DT_INT32"}}}, {"name": "aspp/conv1_4/required_space_to_batch_paddings/add", "op": "Const", "attr": {"value": {"tensor": {"dtype": "DT_INT32", "tensorShape": {"dim": [{"size": "2"}]}}}, "dtype": {"type": "DT_INT32"}}}, {"name": "aspp/conv1_4/kernel", "op": "Const", "attr": {"value": {"tensor": {"dtype": "DT_FLOAT", "tensorShape": {"dim": [{"size": "3"}, {"size": "3"}, {"size": "1280"}, {"size": "256"}]}}}, "dtype": {"type": "DT_FLOAT"}}}, {"name": "aspp/conv1_4/required_space_to_batch_paddings/strided_slice_2/_11__cf__62", "op": "Const", "attr": {"value": {"tensor": {"dtype": "DT_INT32", "tensorShape": {}}}, "dtype": {"type": "DT_INT32"}}}, {"name": "aspp/conv1_3/bias", "op": "Const", "attr": {"value": {"tensor": {"dtype": "DT_FLOAT", "tensorShape": {"dim": [{"size": "256"}]}}}, "dtype": {"type": "DT_FLOAT"}}}, {"name": "aspp/conv1_2/required_space_to_batch_paddings/add", "op": "Const", "attr": {"value": {"tensor": {"dtype": "DT_INT32", "tensorShape": {"dim": [{"size": "2"}]}}}, "dtype": {"type": "DT_INT32"}}}, {"name": "aspp/conv1_3/required_space_to_batch_paddings/add", "op": "Const", "attr": {"value": {"tensor": {"dtype": "DT_INT32", "tensorShape": {"dim": [{"size": "2"}]}}}, "dtype": {"type": "DT_INT32"}}}, {"name": "aspp/conv1_3/kernel", "op": "Const", "attr": {"value": {"tensor": {"dtype": "DT_FLOAT", "tensorShape": {"dim": [{"size": "3"}, {"size": "3"}, {"size": "1280"}, {"size": "256"}]}}}, "dtype": {"type": "DT_FLOAT"}}}, {"name": "aspp/conv1_3/required_space_to_batch_paddings/strided_slice_2/_7__cf__58", "op": "Const", "attr": {"value": {"tensor": {"dtype": "DT_INT32", "tensorShape": {}}}, "dtype": {"type": "DT_INT32"}}}, {"name": "aspp/conv1_2/bias", "op": "Const", "attr": {"value": {"tensor": {"dtype": "DT_FLOAT", "tensorShape": {"dim": [{"size": "256"}]}}}, "dtype": {"type": "DT_FLOAT"}}}, {"name": "aspp/conv1_2/kernel", "op": "Const", "attr": {"value": {"tensor": {"dtype": "DT_FLOAT", "tensorShape": {"dim": [{"size": "3"}, {"size": "3"}, {"size": "1280"}, {"size": "256"}]}}}, "dtype": {"type": "DT_FLOAT"}}}, {"name": "aspp/conv1_2/required_space_to_batch_paddings/strided_slice_2/_3__cf__54", "op": "Const", "attr": {"value": {"tensor": {"dtype": "DT_INT32", "tensorShape": {}}}, "dtype": {"type": "DT_INT32"}}}, {"name": "aspp/conv1_1/bias", "op": "Const", "attr": {"value": {"tensor": {"dtype": "DT_FLOAT", "tensorShape": {"dim": [{"size": "256"}]}}}, "dtype": {"type": "DT_FLOAT"}}}, {"name": "aspp/conv1_1/kernel", "op": "Const", "attr": {"value": {"tensor": {"dtype": "DT_FLOAT", "tensorShape": {"dim": [{"size": "1"}, {"size": "1"}, {"size": "1280"}, {"size": "256"}]}}}, "dtype": {"type": "DT_FLOAT"}}}, {"name": "add/x", "op": "Const", "attr": {"value": {"tensor": {"dtype": "DT_FLOAT", "tensorShape": {}}}, "dtype": {"type": "DT_FLOAT"}}}, {"name": "sub", "op": "Sub", "input": ["input", "Reshape/_0__cf__51"], "attr": {"T": {"type": "DT_FLOAT"}}}, {"name": "conv1/conv1_1/Conv2D", "op": "Conv2D", "input": ["sub", "conv1/conv1_1/kernel"], "attr": {"padding": {"s": "U0FNRQ=="}, "dilations": {"list": {"i": ["1", "1", "1", "1"]}}, "T": {"type": "DT_FLOAT"}, "data_format": {"s": "TkhXQw=="}, "strides": {"list": {"i": ["1", "1", "1", "1"]}}, "use_cudnn_on_gpu": {"b": true}}}, {"name": "conv1/conv1_1/BiasAdd", "op": "BiasAdd", "input": ["conv1/conv1_1/Conv2D", "conv1/conv1_1/bias"], "attr": {"T": {"type": "DT_FLOAT"}, "data_format": {"s": "TkhXQw=="}}}, {"name": "conv1/conv1_1/Relu", "op": "Relu", "input": ["conv1/conv1_1/BiasAdd"], "attr": {"T": {"type": "DT_FLOAT"}}}, {"name": "conv1/conv1_2/Conv2D", "op": "Conv2D", "input": ["conv1/conv1_1/Relu", "conv1/conv1_2/kernel"], "attr": {"padding": {"s": "U0FNRQ=="}, "dilations": {"list": {"i": ["1", "1", "1", "1"]}}, "T": {"type": "DT_FLOAT"}, "data_format": {"s": "TkhXQw=="}, "strides": {"list": {"i": ["1", "1", "1", "1"]}}, "use_cudnn_on_gpu": {"b": true}}}, {"name": "conv1/conv1_2/BiasAdd", "op": "BiasAdd", "input": ["conv1/conv1_2/Conv2D", "conv1/conv1_2/bias"], "attr": {"T": {"type": "DT_FLOAT"}, "data_format": {"s": "TkhXQw=="}}}, {"name": "conv1/conv1_2/Relu", "op": "Relu", "input": ["conv1/conv1_2/BiasAdd"], "attr": {"T": {"type": "DT_FLOAT"}}}, {"name": "max_pooling2d/MaxPool", "op": "MaxPool", "input": ["conv1/conv1_2/Relu"], "attr": {"data_format": {"s": "TkhXQw=="}, "strides": {"list": {"i": ["1", "2", "2", "1"]}}, "ksize": {"list": {"i": ["1", "2", "2", "1"]}}, "padding": {"s": "VkFMSUQ="}, "T": {"type": "DT_FLOAT"}}}, {"name": "conv2/conv2_1/Conv2D", "op": "Conv2D", "input": ["max_pooling2d/MaxPool", "conv2/conv2_1/kernel"], "attr": {"padding": {"s": "U0FNRQ=="}, "dilations": {"list": {"i": ["1", "1", "1", "1"]}}, "T": {"type": "DT_FLOAT"}, "strides": {"list": {"i": ["1", "1", "1", "1"]}}, "data_format": {"s": "TkhXQw=="}, "use_cudnn_on_gpu": {"b": true}}}, {"name": "conv2/conv2_1/BiasAdd", "op": "BiasAdd", "input": ["conv2/conv2_1/Conv2D", "conv2/conv2_1/bias"], "attr": {"T": {"type": "DT_FLOAT"}, "data_format": {"s": "TkhXQw=="}}}, {"name": "conv2/conv2_1/Relu", "op": "Relu", "input": ["conv2/conv2_1/BiasAdd"], "attr": {"T": {"type": "DT_FLOAT"}}}, {"name": "conv2/conv2_2/Conv2D", "op": "Conv2D", "input": ["conv2/conv2_1/Relu", "conv2/conv2_2/kernel"], "attr": {"padding": {"s": "U0FNRQ=="}, "dilations": {"list": {"i": ["1", "1", "1", "1"]}}, "T": {"type": "DT_FLOAT"}, "data_format": {"s": "TkhXQw=="}, "strides": {"list": {"i": ["1", "1", "1", "1"]}}, "use_cudnn_on_gpu": {"b": true}}}, {"name": "conv2/conv2_2/BiasAdd", "op": "BiasAdd", "input": ["conv2/conv2_2/Conv2D", "conv2/conv2_2/bias"], "attr": {"T": {"type": "DT_FLOAT"}, "data_format": {"s": "TkhXQw=="}}}, {"name": "conv2/conv2_2/Relu", "op": "Relu", "input": ["conv2/conv2_2/BiasAdd"], "attr": {"T": {"type": "DT_FLOAT"}}}, {"name": "max_pooling2d_1/MaxPool", "op": "MaxPool", "input": ["conv2/conv2_2/Relu"], "attr": {"ksize": {"list": {"i": ["1", "2", "2", "1"]}}, "padding": {"s": "VkFMSUQ="}, "T": {"type": "DT_FLOAT"}, "data_format": {"s": "TkhXQw=="}, "strides": {"list": {"i": ["1", "2", "2", "1"]}}}}, {"name": "conv3/conv3_1/Conv2D", "op": "Conv2D", "input": ["max_pooling2d_1/MaxPool", "conv3/conv3_1/kernel"], "attr": {"padding": {"s": "U0FNRQ=="}, "dilations": {"list": {"i": ["1", "1", "1", "1"]}}, "T": {"type": "DT_FLOAT"}, "strides": {"list": {"i": ["1", "1", "1", "1"]}}, "data_format": {"s": "TkhXQw=="}, "use_cudnn_on_gpu": {"b": true}}}, {"name": "conv3/conv3_1/BiasAdd", "op": "BiasAdd", "input": ["conv3/conv3_1/Conv2D", "conv3/conv3_1/bias"], "attr": {"T": {"type": "DT_FLOAT"}, "data_format": {"s": "TkhXQw=="}}}, {"name": "conv3/conv3_1/Relu", "op": "Relu", "input": ["conv3/conv3_1/BiasAdd"], "attr": {"T": {"type": "DT_FLOAT"}}}, {"name": "conv3/conv3_2/Conv2D", "op": "Conv2D", "input": ["conv3/conv3_1/Relu", "conv3/conv3_2/kernel"], "attr": {"dilations": {"list": {"i": ["1", "1", "1", "1"]}}, "T": {"type": "DT_FLOAT"}, "data_format": {"s": "TkhXQw=="}, "strides": {"list": {"i": ["1", "1", "1", "1"]}}, "use_cudnn_on_gpu": {"b": true}, "padding": {"s": "U0FNRQ=="}}}, {"name": "conv3/conv3_2/BiasAdd", "op": "BiasAdd", "input": ["conv3/conv3_2/Conv2D", "conv3/conv3_2/bias"], "attr": {"data_format": {"s": "TkhXQw=="}, "T": {"type": "DT_FLOAT"}}}, {"name": "conv3/conv3_2/Relu", "op": "Relu", "input": ["conv3/conv3_2/BiasAdd"], "attr": {"T": {"type": "DT_FLOAT"}}}, {"name": "conv3/conv3_3/Conv2D", "op": "Conv2D", "input": ["conv3/conv3_2/Relu", "conv3/conv3_3/kernel"], "attr": {"dilations": {"list": {"i": ["1", "1", "1", "1"]}}, "T": {"type": "DT_FLOAT"}, "data_format": {"s": "TkhXQw=="}, "strides": {"list": {"i": ["1", "1", "1", "1"]}}, "use_cudnn_on_gpu": {"b": true}, "padding": {"s": "U0FNRQ=="}}}, {"name": "conv3/conv3_3/BiasAdd", "op": "BiasAdd", "input": ["conv3/conv3_3/Conv2D", "conv3/conv3_3/bias"], "attr": {"T": {"type": "DT_FLOAT"}, "data_format": {"s": "TkhXQw=="}}}, {"name": "conv3/conv3_3/Relu", "op": "Relu", "input": ["conv3/conv3_3/BiasAdd"], "attr": {"T": {"type": "DT_FLOAT"}}}, {"name": "max_pooling2d_2/MaxPool", "op": "MaxPool", "input": ["conv3/conv3_3/Relu"], "attr": {"ksize": {"list": {"i": ["1", "2", "2", "1"]}}, "padding": {"s": "VkFMSUQ="}, "T": {"type": "DT_FLOAT"}, "data_format": {"s": "TkhXQw=="}, "strides": {"list": {"i": ["1", "2", "2", "1"]}}}}, {"name": "conv4/conv4_1/Conv2D", "op": "Conv2D", "input": ["max_pooling2d_2/MaxPool", "conv4/conv4_1/kernel"], "attr": {"padding": {"s": "U0FNRQ=="}, "dilations": {"list": {"i": ["1", "1", "1", "1"]}}, "T": {"type": "DT_FLOAT"}, "data_format": {"s": "TkhXQw=="}, "strides": {"list": {"i": ["1", "1", "1", "1"]}}, "use_cudnn_on_gpu": {"b": true}}}, {"name": "conv4/conv4_1/BiasAdd", "op": "BiasAdd", "input": ["conv4/conv4_1/Conv2D", "conv4/conv4_1/bias"], "attr": {"T": {"type": "DT_FLOAT"}, "data_format": {"s": "TkhXQw=="}}}, {"name": "conv4/conv4_1/Relu", "op": "Relu", "input": ["conv4/conv4_1/BiasAdd"], "attr": {"T": {"type": "DT_FLOAT"}}}, {"name": "conv4/conv4_2/Conv2D", "op": "Conv2D", "input": ["conv4/conv4_1/Relu", "conv4/conv4_2/kernel"], "attr": {"padding": {"s": "U0FNRQ=="}, "dilations": {"list": {"i": ["1", "1", "1", "1"]}}, "T": {"type": "DT_FLOAT"}, "strides": {"list": {"i": ["1", "1", "1", "1"]}}, "data_format": {"s": "TkhXQw=="}, "use_cudnn_on_gpu": {"b": true}}}, {"name": "conv4/conv4_2/BiasAdd", "op": "BiasAdd", "input": ["conv4/conv4_2/Conv2D", "conv4/conv4_2/bias"], "attr": {"T": {"type": "DT_FLOAT"}, "data_format": {"s": "TkhXQw=="}}}, {"name": "conv4/conv4_2/Relu", "op": "Relu", "input": ["conv4/conv4_2/BiasAdd"], "attr": {"T": {"type": "DT_FLOAT"}}}, {"name": "conv4/conv4_3/Conv2D", "op": "Conv2D", "input": ["conv4/conv4_2/Relu", "conv4/conv4_3/kernel"], "attr": {"padding": {"s": "U0FNRQ=="}, "dilations": {"list": {"i": ["1", "1", "1", "1"]}}, "T": {"type": "DT_FLOAT"}, "data_format": {"s": "TkhXQw=="}, "strides": {"list": {"i": ["1", "1", "1", "1"]}}, "use_cudnn_on_gpu": {"b": true}}}, {"name": "conv4/conv4_3/BiasAdd", "op": "BiasAdd", "input": ["conv4/conv4_3/Conv2D", "conv4/conv4_3/bias"], "attr": {"T": {"type": "DT_FLOAT"}, "data_format": {"s": "TkhXQw=="}}}, {"name": "conv4/conv4_3/Relu", "op": "Relu", "input": ["conv4/conv4_3/BiasAdd"], "attr": {"T": {"type": "DT_FLOAT"}}}, {"name": "max_pooling2d_3/MaxPool", "op": "MaxPool", "input": ["conv4/conv4_3/Relu"], "attr": {"ksize": {"list": {"i": ["1", "2", "2", "1"]}}, "padding": {"s": "U0FNRQ=="}, "T": {"type": "DT_FLOAT"}, "data_format": {"s": "TkhXQw=="}, "strides": {"list": {"i": ["1", "1", "1", "1"]}}}}, {"name": "conv5/conv5_1/Shape", "op": "Shape", "input": ["max_pooling2d_3/MaxPool"], "attr": {"out_type": {"type": "DT_INT32"}, "T": {"type": "DT_FLOAT"}}}, {"name": "conv5/conv5_1/strided_slice_1", "op": "StridedSlice", "input": ["conv5/conv5_1/Shape", "conv5/conv5_1/strided_slice/stack_1", "conv5/conv5_1/strided_slice_1/stack_1", "conv5/conv5_1/strided_slice/stack"], "attr": {"Index": {"type": "DT_INT32"}, "T": {"type": "DT_INT32"}, "shrink_axis_mask": {"i": "1"}, "begin_mask": {"i": "0"}, "ellipsis_mask": {"i": "0"}, "new_axis_mask": {"i": "0"}, "end_mask": {"i": "0"}}}, {"name": "conv5/conv5_1/strided_slice", "op": "StridedSlice", "input": ["conv5/conv5_1/Shape", "conv5/conv5_1/strided_slice/stack", "conv5/conv5_1/strided_slice/stack_1", "conv5/conv5_1/strided_slice/stack"], "attr": {"T": {"type": "DT_INT32"}, "Index": {"type": "DT_INT32"}, "shrink_axis_mask": {"i": "1"}, "begin_mask": {"i": "0"}, "ellipsis_mask": {"i": "0"}, "new_axis_mask": {"i": "0"}, "end_mask": {"i": "0"}}}, {"name": "conv5/conv5_1/stack_1", "op": "Pack", "input": ["conv5/conv5_1/strided_slice", "conv5/conv5_1/strided_slice_1"], "attr": {"T": {"type": "DT_INT32"}, "axis": {"i": "0"}, "N": {"i": "2"}}}, {"name": "conv5/conv5_1/required_space_to_batch_paddings/add_1", "op": "Add", "input": ["aspp/conv1_2/required_space_to_batch_paddings/strided_slice_1/_2__cf__53", "conv5/conv5_1/stack_1"], "attr": {"T": {"type": "DT_INT32"}}}, {"name": "conv5/conv5_1/required_space_to_batch_paddings/mod", "op": "FloorMod", "input": ["conv5/conv5_1/required_space_to_batch_paddings/add_1", "conv5/conv5_1/required_space_to_batch_paddings/strided_slice_1/_14__cf__65"], "attr": {"T": {"type": "DT_INT32"}}}, {"name": "conv5/conv5_1/required_space_to_batch_paddings/sub", "op": "Sub", "input": ["conv5/conv5_1/required_space_to_batch_paddings/strided_slice_1/_14__cf__65", "conv5/conv5_1/required_space_to_batch_paddings/mod"], "attr": {"T": {"type": "DT_INT32"}}}, {"name": "conv5/conv5_1/required_space_to_batch_paddings/mod_1", "op": "FloorMod", "input": ["conv5/conv5_1/required_space_to_batch_paddings/sub", "conv5/conv5_1/required_space_to_batch_paddings/strided_slice_1/_14__cf__65"], "attr": {"T": {"type": "DT_INT32"}}}, {"name": "conv5/conv5_1/required_space_to_batch_paddings/strided_slice_7", "op": "StridedSlice", "input": ["conv5/conv5_1/required_space_to_batch_paddings/mod_1", "conv5/conv5_1/strided_slice/stack", "conv5/conv5_1/strided_slice/stack_1", "conv5/conv5_1/strided_slice/stack"], "attr": {"new_axis_mask": {"i": "0"}, "end_mask": {"i": "0"}, "Index": {"type": "DT_INT32"}, "T": {"type": "DT_INT32"}, "shrink_axis_mask": {"i": "1"}, "begin_mask": {"i": "0"}, "ellipsis_mask": {"i": "0"}}}, {"name": "conv5/conv5_1/required_space_to_batch_paddings/strided_slice_6", "op": "StridedSlice", "input": ["conv5/conv5_1/required_space_to_batch_paddings/mod_1", "conv5/conv5_1/required_space_to_batch_paddings/strided_slice_2/stack", "conv5/conv5_1/strided_slice/stack", "conv5/conv5_1/strided_slice/stack"], "attr": {"shrink_axis_mask": {"i": "1"}, "begin_mask": {"i": "0"}, "ellipsis_mask": {"i": "0"}, "new_axis_mask": {"i": "0"}, "end_mask": {"i": "0"}, "T": {"type": "DT_INT32"}, "Index": {"type": "DT_INT32"}}}, {"name": "conv5/conv5_1/required_space_to_batch_paddings/add_2", "op": "Add", "input": ["conv5/conv5_1/required_space_to_batch_paddings/strided_slice_1/_14__cf__65", "conv5/conv5_1/required_space_to_batch_paddings/mod_1"], "attr": {"T": {"type": "DT_INT32"}}}, {"name": "conv5/conv5_1/required_space_to_batch_paddings/crops/1", "op": "Pack", "input": ["conv5/conv5_1/required_space_to_batch_paddings/crops/0/0", "conv5/conv5_1/required_space_to_batch_paddings/strided_slice_7"], "attr": {"axis": {"i": "0"}, "N": {"i": "2"}, "T": {"type": "DT_INT32"}}}, {"name": "conv5/conv5_1/required_space_to_batch_paddings/crops/0", "op": "Pack", "input": ["conv5/conv5_1/required_space_to_batch_paddings/crops/0/0", "conv5/conv5_1/required_space_to_batch_paddings/strided_slice_6"], "attr": {"T": {"type": "DT_INT32"}, "axis": {"i": "0"}, "N": {"i": "2"}}}, {"name": "conv5/conv5_1/required_space_to_batch_paddings/strided_slice_5", "op": "StridedSlice", "input": ["conv5/conv5_1/required_space_to_batch_paddings/add_2", "conv5/conv5_1/strided_slice/stack", "conv5/conv5_1/strided_slice/stack_1", "conv5/conv5_1/strided_slice/stack"], "attr": {"Index": {"type": "DT_INT32"}, "T": {"type": "DT_INT32"}, "shrink_axis_mask": {"i": "1"}, "begin_mask": {"i": "0"}, "ellipsis_mask": {"i": "0"}, "new_axis_mask": {"i": "0"}, "end_mask": {"i": "0"}}}, {"name": "conv5/conv5_1/required_space_to_batch_paddings/strided_slice_3", "op": "StridedSlice", "input": ["conv5/conv5_1/required_space_to_batch_paddings/add_2", "conv5/conv5_1/required_space_to_batch_paddings/strided_slice_2/stack", "conv5/conv5_1/strided_slice/stack", "conv5/conv5_1/strided_slice/stack"], "attr": {"shrink_axis_mask": {"i": "1"}, "begin_mask": {"i": "0"}, "ellipsis_mask": {"i": "0"}, "new_axis_mask": {"i": "0"}, "end_mask": {"i": "0"}, "T": {"type": "DT_INT32"}, "Index": {"type": "DT_INT32"}}}, {"name": "conv5/conv5_1/required_space_to_batch_paddings/crops", "op": "Pack", "input": ["conv5/conv5_1/required_space_to_batch_paddings/crops/0", "conv5/conv5_1/required_space_to_batch_paddings/crops/1"], "attr": {"T": {"type": "DT_INT32"}, "axis": {"i": "0"}, "N": {"i": "2"}}}, {"name": "conv5/conv5_1/required_space_to_batch_paddings/paddings/1", "op": "Pack", "input": ["conv5/conv5_3/required_space_to_batch_paddings/strided_slice_2/_16__cf__67", "conv5/conv5_1/required_space_to_batch_paddings/strided_slice_5"], "attr": {"T": {"type": "DT_INT32"}, "axis": {"i": "0"}, "N": {"i": "2"}}}, {"name": "conv5/conv5_1/required_space_to_batch_paddings/paddings/0", "op": "Pack", "input": ["conv5/conv5_3/required_space_to_batch_paddings/strided_slice_2/_16__cf__67", "conv5/conv5_1/required_space_to_batch_paddings/strided_slice_3"], "attr": {"N": {"i": "2"}, "T": {"type": "DT_INT32"}, "axis": {"i": "0"}}}, {"name": "conv5/conv5_1/required_space_to_batch_paddings/paddings", "op": "Pack", "input": ["conv5/conv5_1/required_space_to_batch_paddings/paddings/0", "conv5/conv5_1/required_space_to_batch_paddings/paddings/1"], "attr": {"T": {"type": "DT_INT32"}, "axis": {"i": "0"}, "N": {"i": "2"}}}, {"name": "conv5/conv5_1/SpaceToBatchND", "op": "SpaceToBatchND", "input": ["max_pooling2d_3/MaxPool", "conv5/conv5_1/required_space_to_batch_paddings/strided_slice_1/_14__cf__65", "conv5/conv5_1/required_space_to_batch_paddings/paddings"], "attr": {"Tpaddings": {"type": "DT_INT32"}, "Tblock_shape": {"type": "DT_INT32"}, "T": {"type": "DT_FLOAT"}}}, {"name": "conv5/conv5_1/Conv2D", "op": "Conv2D", "input": ["conv5/conv5_1/SpaceToBatchND", "conv5/conv5_1/kernel"], "attr": {"T": {"type": "DT_FLOAT"}, "data_format": {"s": "TkhXQw=="}, "strides": {"list": {"i": ["1", "1", "1", "1"]}}, "use_cudnn_on_gpu": {"b": true}, "padding": {"s": "VkFMSUQ="}, "dilations": {"list": {"i": ["1", "1", "1", "1"]}}}}, {"name": "conv5/conv5_1/BatchToSpaceND", "op": "BatchToSpaceND", "input": ["conv5/conv5_1/Conv2D", "conv5/conv5_1/required_space_to_batch_paddings/strided_slice_1/_14__cf__65", "conv5/conv5_1/required_space_to_batch_paddings/crops"], "attr": {"Tcrops": {"type": "DT_INT32"}, "T": {"type": "DT_FLOAT"}, "Tblock_shape": {"type": "DT_INT32"}}}, {"name": "conv5/conv5_1/BiasAdd", "op": "BiasAdd", "input": ["conv5/conv5_1/BatchToSpaceND", "conv5/conv5_1/bias"], "attr": {"T": {"type": "DT_FLOAT"}, "data_format": {"s": "TkhXQw=="}}}, {"name": "conv5/conv5_1/Relu", "op": "Relu", "input": ["conv5/conv5_1/BiasAdd"], "attr": {"T": {"type": "DT_FLOAT"}}}, {"name": "conv5/conv5_2/Shape", "op": "Shape", "input": ["conv5/conv5_1/Relu"], "attr": {"T": {"type": "DT_FLOAT"}, "out_type": {"type": "DT_INT32"}}}, {"name": "conv5/conv5_2/strided_slice_1", "op": "StridedSlice", "input": ["conv5/conv5_2/Shape", "conv5/conv5_1/strided_slice/stack_1", "conv5/conv5_1/strided_slice_1/stack_1", "conv5/conv5_1/strided_slice/stack"], "attr": {"shrink_axis_mask": {"i": "1"}, "begin_mask": {"i": "0"}, "ellipsis_mask": {"i": "0"}, "new_axis_mask": {"i": "0"}, "end_mask": {"i": "0"}, "T": {"type": "DT_INT32"}, "Index": {"type": "DT_INT32"}}}, {"name": "conv5/conv5_2/strided_slice", "op": "StridedSlice", "input": ["conv5/conv5_2/Shape", "conv5/conv5_1/strided_slice/stack", "conv5/conv5_1/strided_slice/stack_1", "conv5/conv5_1/strided_slice/stack"], "attr": {"shrink_axis_mask": {"i": "1"}, "begin_mask": {"i": "0"}, "ellipsis_mask": {"i": "0"}, "new_axis_mask": {"i": "0"}, "end_mask": {"i": "0"}, "Index": {"type": "DT_INT32"}, "T": {"type": "DT_INT32"}}}, {"name": "conv5/conv5_2/stack_1", "op": "Pack", "input": ["conv5/conv5_2/strided_slice", "conv5/conv5_2/strided_slice_1"], "attr": {"T": {"type": "DT_INT32"}, "axis": {"i": "0"}, "N": {"i": "2"}}}, {"name": "conv5/conv5_2/required_space_to_batch_paddings/add_1", "op": "Add", "input": ["aspp/conv1_2/required_space_to_batch_paddings/strided_slice_1/_2__cf__53", "conv5/conv5_2/stack_1"], "attr": {"T": {"type": "DT_INT32"}}}, {"name": "conv5/conv5_2/required_space_to_batch_paddings/mod", "op": "FloorMod", "input": ["conv5/conv5_2/required_space_to_batch_paddings/add_1", "conv5/conv5_1/required_space_to_batch_paddings/strided_slice_1/_14__cf__65"], "attr": {"T": {"type": "DT_INT32"}}}, {"name": "conv5/conv5_2/required_space_to_batch_paddings/sub", "op": "Sub", "input": ["conv5/conv5_1/required_space_to_batch_paddings/strided_slice_1/_14__cf__65", "conv5/conv5_2/required_space_to_batch_paddings/mod"], "attr": {"T": {"type": "DT_INT32"}}}, {"name": "conv5/conv5_2/required_space_to_batch_paddings/mod_1", "op": "FloorMod", "input": ["conv5/conv5_2/required_space_to_batch_paddings/sub", "conv5/conv5_1/required_space_to_batch_paddings/strided_slice_1/_14__cf__65"], "attr": {"T": {"type": "DT_INT32"}}}, {"name": "conv5/conv5_2/required_space_to_batch_paddings/strided_slice_7", "op": "StridedSlice", "input": ["conv5/conv5_2/required_space_to_batch_paddings/mod_1", "conv5/conv5_1/strided_slice/stack", "conv5/conv5_1/strided_slice/stack_1", "conv5/conv5_1/strided_slice/stack"], "attr": {"T": {"type": "DT_INT32"}, "Index": {"type": "DT_INT32"}, "shrink_axis_mask": {"i": "1"}, "ellipsis_mask": {"i": "0"}, "begin_mask": {"i": "0"}, "new_axis_mask": {"i": "0"}, "end_mask": {"i": "0"}}}, {"name": "conv5/conv5_2/required_space_to_batch_paddings/strided_slice_6", "op": "StridedSlice", "input": ["conv5/conv5_2/required_space_to_batch_paddings/mod_1", "conv5/conv5_1/required_space_to_batch_paddings/strided_slice_2/stack", "conv5/conv5_1/strided_slice/stack", "conv5/conv5_1/strided_slice/stack"], "attr": {"shrink_axis_mask": {"i": "1"}, "begin_mask": {"i": "0"}, "ellipsis_mask": {"i": "0"}, "new_axis_mask": {"i": "0"}, "end_mask": {"i": "0"}, "T": {"type": "DT_INT32"}, "Index": {"type": "DT_INT32"}}}, {"name": "conv5/conv5_2/required_space_to_batch_paddings/add_2", "op": "Add", "input": ["conv5/conv5_1/required_space_to_batch_paddings/strided_slice_1/_14__cf__65", "conv5/conv5_2/required_space_to_batch_paddings/mod_1"], "attr": {"T": {"type": "DT_INT32"}}}, {"name": "conv5/conv5_2/required_space_to_batch_paddings/crops/1", "op": "Pack", "input": ["conv5/conv5_1/required_space_to_batch_paddings/crops/0/0", "conv5/conv5_2/required_space_to_batch_paddings/strided_slice_7"], "attr": {"T": {"type": "DT_INT32"}, "axis": {"i": "0"}, "N": {"i": "2"}}}, {"name": "conv5/conv5_2/required_space_to_batch_paddings/crops/0", "op": "Pack", "input": ["conv5/conv5_1/required_space_to_batch_paddings/crops/0/0", "conv5/conv5_2/required_space_to_batch_paddings/strided_slice_6"], "attr": {"N": {"i": "2"}, "T": {"type": "DT_INT32"}, "axis": {"i": "0"}}}, {"name": "conv5/conv5_2/required_space_to_batch_paddings/strided_slice_5", "op": "StridedSlice", "input": ["conv5/conv5_2/required_space_to_batch_paddings/add_2", "conv5/conv5_1/strided_slice/stack", "conv5/conv5_1/strided_slice/stack_1", "conv5/conv5_1/strided_slice/stack"], "attr": {"ellipsis_mask": {"i": "0"}, "begin_mask": {"i": "0"}, "new_axis_mask": {"i": "0"}, "end_mask": {"i": "0"}, "Index": {"type": "DT_INT32"}, "T": {"type": "DT_INT32"}, "shrink_axis_mask": {"i": "1"}}}, {"name": "conv5/conv5_2/required_space_to_batch_paddings/strided_slice_3", "op": "StridedSlice", "input": ["conv5/conv5_2/required_space_to_batch_paddings/add_2", "conv5/conv5_1/required_space_to_batch_paddings/strided_slice_2/stack", "conv5/conv5_1/strided_slice/stack", "conv5/conv5_1/strided_slice/stack"], "attr": {"T": {"type": "DT_INT32"}, "Index": {"type": "DT_INT32"}, "shrink_axis_mask": {"i": "1"}, "ellipsis_mask": {"i": "0"}, "begin_mask": {"i": "0"}, "new_axis_mask": {"i": "0"}, "end_mask": {"i": "0"}}}, {"name": "conv5/conv5_2/required_space_to_batch_paddings/crops", "op": "Pack", "input": ["conv5/conv5_2/required_space_to_batch_paddings/crops/0", "conv5/conv5_2/required_space_to_batch_paddings/crops/1"], "attr": {"T": {"type": "DT_INT32"}, "axis": {"i": "0"}, "N": {"i": "2"}}}, {"name": "conv5/conv5_2/required_space_to_batch_paddings/paddings/1", "op": "Pack", "input": ["conv5/conv5_3/required_space_to_batch_paddings/strided_slice_2/_16__cf__67", "conv5/conv5_2/required_space_to_batch_paddings/strided_slice_5"], "attr": {"T": {"type": "DT_INT32"}, "axis": {"i": "0"}, "N": {"i": "2"}}}, {"name": "conv5/conv5_2/required_space_to_batch_paddings/paddings/0", "op": "Pack", "input": ["conv5/conv5_3/required_space_to_batch_paddings/strided_slice_2/_16__cf__67", "conv5/conv5_2/required_space_to_batch_paddings/strided_slice_3"], "attr": {"T": {"type": "DT_INT32"}, "axis": {"i": "0"}, "N": {"i": "2"}}}, {"name": "conv5/conv5_2/required_space_to_batch_paddings/paddings", "op": "Pack", "input": ["conv5/conv5_2/required_space_to_batch_paddings/paddings/0", "conv5/conv5_2/required_space_to_batch_paddings/paddings/1"], "attr": {"N": {"i": "2"}, "T": {"type": "DT_INT32"}, "axis": {"i": "0"}}}, {"name": "conv5/conv5_2/SpaceToBatchND", "op": "SpaceToBatchND", "input": ["conv5/conv5_1/Relu", "conv5/conv5_1/required_space_to_batch_paddings/strided_slice_1/_14__cf__65", "conv5/conv5_2/required_space_to_batch_paddings/paddings"], "attr": {"Tpaddings": {"type": "DT_INT32"}, "Tblock_shape": {"type": "DT_INT32"}, "T": {"type": "DT_FLOAT"}}}, {"name": "conv5/conv5_2/Conv2D", "op": "Conv2D", "input": ["conv5/conv5_2/SpaceToBatchND", "conv5/conv5_2/kernel"], "attr": {"strides": {"list": {"i": ["1", "1", "1", "1"]}}, "data_format": {"s": "TkhXQw=="}, "use_cudnn_on_gpu": {"b": true}, "padding": {"s": "VkFMSUQ="}, "dilations": {"list": {"i": ["1", "1", "1", "1"]}}, "T": {"type": "DT_FLOAT"}}}, {"name": "conv5/conv5_2/BatchToSpaceND", "op": "BatchToSpaceND", "input": ["conv5/conv5_2/Conv2D", "conv5/conv5_1/required_space_to_batch_paddings/strided_slice_1/_14__cf__65", "conv5/conv5_2/required_space_to_batch_paddings/crops"], "attr": {"Tcrops": {"type": "DT_INT32"}, "T": {"type": "DT_FLOAT"}, "Tblock_shape": {"type": "DT_INT32"}}}, {"name": "conv5/conv5_2/BiasAdd", "op": "BiasAdd", "input": ["conv5/conv5_2/BatchToSpaceND", "conv5/conv5_2/bias"], "attr": {"data_format": {"s": "TkhXQw=="}, "T": {"type": "DT_FLOAT"}}}, {"name": "conv5/conv5_2/Relu", "op": "Relu", "input": ["conv5/conv5_2/BiasAdd"], "attr": {"T": {"type": "DT_FLOAT"}}}, {"name": "conv5/conv5_3/Shape", "op": "Shape", "input": ["conv5/conv5_2/Relu"], "attr": {"T": {"type": "DT_FLOAT"}, "out_type": {"type": "DT_INT32"}}}, {"name": "conv5/conv5_3/strided_slice_1", "op": "StridedSlice", "input": ["conv5/conv5_3/Shape", "conv5/conv5_1/strided_slice/stack_1", "conv5/conv5_1/strided_slice_1/stack_1", "conv5/conv5_1/strided_slice/stack"], "attr": {"new_axis_mask": {"i": "0"}, "end_mask": {"i": "0"}, "Index": {"type": "DT_INT32"}, "T": {"type": "DT_INT32"}, "shrink_axis_mask": {"i": "1"}, "begin_mask": {"i": "0"}, "ellipsis_mask": {"i": "0"}}}, {"name": "conv5/conv5_3/strided_slice", "op": "StridedSlice", "input": ["conv5/conv5_3/Shape", "conv5/conv5_1/strided_slice/stack", "conv5/conv5_1/strided_slice/stack_1", "conv5/conv5_1/strided_slice/stack"], "attr": {"ellipsis_mask": {"i": "0"}, "begin_mask": {"i": "0"}, "new_axis_mask": {"i": "0"}, "end_mask": {"i": "0"}, "T": {"type": "DT_INT32"}, "Index": {"type": "DT_INT32"}, "shrink_axis_mask": {"i": "1"}}}, {"name": "conv5/conv5_3/stack_1", "op": "Pack", "input": ["conv5/conv5_3/strided_slice", "conv5/conv5_3/strided_slice_1"], "attr": {"T": {"type": "DT_INT32"}, "axis": {"i": "0"}, "N": {"i": "2"}}}, {"name": "conv5/conv5_3/required_space_to_batch_paddings/add_1", "op": "Add", "input": ["aspp/conv1_2/required_space_to_batch_paddings/strided_slice_1/_2__cf__53", "conv5/conv5_3/stack_1"], "attr": {"T": {"type": "DT_INT32"}}}, {"name": "conv5/conv5_3/required_space_to_batch_paddings/mod", "op": "FloorMod", "input": ["conv5/conv5_3/required_space_to_batch_paddings/add_1", "conv5/conv5_1/required_space_to_batch_paddings/strided_slice_1/_14__cf__65"], "attr": {"T": {"type": "DT_INT32"}}}, {"name": "conv5/conv5_3/required_space_to_batch_paddings/sub", "op": "Sub", "input": ["conv5/conv5_1/required_space_to_batch_paddings/strided_slice_1/_14__cf__65", "conv5/conv5_3/required_space_to_batch_paddings/mod"], "attr": {"T": {"type": "DT_INT32"}}}, {"name": "conv5/conv5_3/required_space_to_batch_paddings/mod_1", "op": "FloorMod", "input": ["conv5/conv5_3/required_space_to_batch_paddings/sub", "conv5/conv5_1/required_space_to_batch_paddings/strided_slice_1/_14__cf__65"], "attr": {"T": {"type": "DT_INT32"}}}, {"name": "conv5/conv5_3/required_space_to_batch_paddings/strided_slice_7", "op": "StridedSlice", "input": ["conv5/conv5_3/required_space_to_batch_paddings/mod_1", "conv5/conv5_1/strided_slice/stack", "conv5/conv5_1/strided_slice/stack_1", "conv5/conv5_1/strided_slice/stack"], "attr": {"ellipsis_mask": {"i": "0"}, "begin_mask": {"i": "0"}, "new_axis_mask": {"i": "0"}, "end_mask": {"i": "0"}, "Index": {"type": "DT_INT32"}, "T": {"type": "DT_INT32"}, "shrink_axis_mask": {"i": "1"}}}, {"name": "conv5/conv5_3/required_space_to_batch_paddings/strided_slice_6", "op": "StridedSlice", "input": ["conv5/conv5_3/required_space_to_batch_paddings/mod_1", "conv5/conv5_1/required_space_to_batch_paddings/strided_slice_2/stack", "conv5/conv5_1/strided_slice/stack", "conv5/conv5_1/strided_slice/stack"], "attr": {"begin_mask": {"i": "0"}, "ellipsis_mask": {"i": "0"}, "new_axis_mask": {"i": "0"}, "end_mask": {"i": "0"}, "Index": {"type": "DT_INT32"}, "T": {"type": "DT_INT32"}, "shrink_axis_mask": {"i": "1"}}}, {"name": "conv5/conv5_3/required_space_to_batch_paddings/add_2", "op": "Add", "input": ["conv5/conv5_1/required_space_to_batch_paddings/strided_slice_1/_14__cf__65", "conv5/conv5_3/required_space_to_batch_paddings/mod_1"], "attr": {"T": {"type": "DT_INT32"}}}, {"name": "conv5/conv5_3/required_space_to_batch_paddings/crops/1", "op": "Pack", "input": ["conv5/conv5_1/required_space_to_batch_paddings/crops/0/0", "conv5/conv5_3/required_space_to_batch_paddings/strided_slice_7"], "attr": {"T": {"type": "DT_INT32"}, "axis": {"i": "0"}, "N": {"i": "2"}}}, {"name": "conv5/conv5_3/required_space_to_batch_paddings/crops/0", "op": "Pack", "input": ["conv5/conv5_1/required_space_to_batch_paddings/crops/0/0", "conv5/conv5_3/required_space_to_batch_paddings/strided_slice_6"], "attr": {"N": {"i": "2"}, "T": {"type": "DT_INT32"}, "axis": {"i": "0"}}}, {"name": "conv5/conv5_3/required_space_to_batch_paddings/strided_slice_5", "op": "StridedSlice", "input": ["conv5/conv5_3/required_space_to_batch_paddings/add_2", "conv5/conv5_1/strided_slice/stack", "conv5/conv5_1/strided_slice/stack_1", "conv5/conv5_1/strided_slice/stack"], "attr": {"shrink_axis_mask": {"i": "1"}, "ellipsis_mask": {"i": "0"}, "begin_mask": {"i": "0"}, "new_axis_mask": {"i": "0"}, "end_mask": {"i": "0"}, "T": {"type": "DT_INT32"}, "Index": {"type": "DT_INT32"}}}, {"name": "conv5/conv5_3/required_space_to_batch_paddings/strided_slice_3", "op": "StridedSlice", "input": ["conv5/conv5_3/required_space_to_batch_paddings/add_2", "conv5/conv5_1/required_space_to_batch_paddings/strided_slice_2/stack", "conv5/conv5_1/strided_slice/stack", "conv5/conv5_1/strided_slice/stack"], "attr": {"shrink_axis_mask": {"i": "1"}, "ellipsis_mask": {"i": "0"}, "begin_mask": {"i": "0"}, "new_axis_mask": {"i": "0"}, "end_mask": {"i": "0"}, "T": {"type": "DT_INT32"}, "Index": {"type": "DT_INT32"}}}, {"name": "conv5/conv5_3/required_space_to_batch_paddings/crops", "op": "Pack", "input": ["conv5/conv5_3/required_space_to_batch_paddings/crops/0", "conv5/conv5_3/required_space_to_batch_paddings/crops/1"], "attr": {"T": {"type": "DT_INT32"}, "axis": {"i": "0"}, "N": {"i": "2"}}}, {"name": "conv5/conv5_3/required_space_to_batch_paddings/paddings/1", "op": "Pack", "input": ["conv5/conv5_3/required_space_to_batch_paddings/strided_slice_2/_16__cf__67", "conv5/conv5_3/required_space_to_batch_paddings/strided_slice_5"], "attr": {"N": {"i": "2"}, "T": {"type": "DT_INT32"}, "axis": {"i": "0"}}}, {"name": "conv5/conv5_3/required_space_to_batch_paddings/paddings/0", "op": "Pack", "input": ["conv5/conv5_3/required_space_to_batch_paddings/strided_slice_2/_16__cf__67", "conv5/conv5_3/required_space_to_batch_paddings/strided_slice_3"], "attr": {"axis": {"i": "0"}, "N": {"i": "2"}, "T": {"type": "DT_INT32"}}}, {"name": "conv5/conv5_3/required_space_to_batch_paddings/paddings", "op": "Pack", "input": ["conv5/conv5_3/required_space_to_batch_paddings/paddings/0", "conv5/conv5_3/required_space_to_batch_paddings/paddings/1"], "attr": {"T": {"type": "DT_INT32"}, "axis": {"i": "0"}, "N": {"i": "2"}}}, {"name": "conv5/conv5_3/SpaceToBatchND", "op": "SpaceToBatchND", "input": ["conv5/conv5_2/Relu", "conv5/conv5_1/required_space_to_batch_paddings/strided_slice_1/_14__cf__65", "conv5/conv5_3/required_space_to_batch_paddings/paddings"], "attr": {"T": {"type": "DT_FLOAT"}, "Tpaddings": {"type": "DT_INT32"}, "Tblock_shape": {"type": "DT_INT32"}}}, {"name": "conv5/conv5_3/Conv2D", "op": "Conv2D", "input": ["conv5/conv5_3/SpaceToBatchND", "conv5/conv5_3/kernel"], "attr": {"padding": {"s": "VkFMSUQ="}, "dilations": {"list": {"i": ["1", "1", "1", "1"]}}, "T": {"type": "DT_FLOAT"}, "strides": {"list": {"i": ["1", "1", "1", "1"]}}, "data_format": {"s": "TkhXQw=="}, "use_cudnn_on_gpu": {"b": true}}}, {"name": "conv5/conv5_3/BatchToSpaceND", "op": "BatchToSpaceND", "input": ["conv5/conv5_3/Conv2D", "conv5/conv5_1/required_space_to_batch_paddings/strided_slice_1/_14__cf__65", "conv5/conv5_3/required_space_to_batch_paddings/crops"], "attr": {"Tcrops": {"type": "DT_INT32"}, "T": {"type": "DT_FLOAT"}, "Tblock_shape": {"type": "DT_INT32"}}}, {"name": "conv5/conv5_3/BiasAdd", "op": "BiasAdd", "input": ["conv5/conv5_3/BatchToSpaceND", "conv5/conv5_3/bias"], "attr": {"data_format": {"s": "TkhXQw=="}, "T": {"type": "DT_FLOAT"}}}, {"name": "conv5/conv5_3/Relu", "op": "Relu", "input": ["conv5/conv5_3/BiasAdd"], "attr": {"T": {"type": "DT_FLOAT"}}}, {"name": "max_pooling2d_4/MaxPool", "op": "MaxPool", "input": ["conv5/conv5_3/Relu"], "attr": {"ksize": {"list": {"i": ["1", "2", "2", "1"]}}, "padding": {"s": "U0FNRQ=="}, "T": {"type": "DT_FLOAT"}, "data_format": {"s": "TkhXQw=="}, "strides": {"list": {"i": ["1", "1", "1", "1"]}}}}, {"name": "concat", "op": "ConcatV2", "input": ["max_pooling2d_2/MaxPool", "max_pooling2d_3/MaxPool", "max_pooling2d_4/MaxPool", "concat/axis"], "attr": {"N": {"i": "3"}, "Tidx": {"type": "DT_INT32"}, "T": {"type": "DT_FLOAT"}}}, {"name": "aspp/conv1_2/Shape", "op": "Shape", "input": ["concat"], "attr": {"T": {"type": "DT_FLOAT"}, "out_type": {"type": "DT_INT32"}}}, {"name": "Mean", "op": "Mean", "input": ["concat", "Mean/reduction_indices"], "attr": {"T": {"type": "DT_FLOAT"}, "Tidx": {"type": "DT_INT32"}, "keep_dims": {"b": true}}}, {"name": "aspp/conv1_1/Conv2D", "op": "Conv2D", "input": ["concat", "aspp/conv1_1/kernel"], "attr": {"dilations": {"list": {"i": ["1", "1", "1", "1"]}}, "T": {"type": "DT_FLOAT"}, "strides": {"list": {"i": ["1", "1", "1", "1"]}}, "data_format": {"s": "TkhXQw=="}, "use_cudnn_on_gpu": {"b": true}, "padding": {"s": "U0FNRQ=="}}}, {"name": "aspp/conv1_4/strided_slice_1", "op": "StridedSlice", "input": ["aspp/conv1_2/Shape", "conv5/conv5_1/strided_slice/stack_1", "conv5/conv5_1/strided_slice_1/stack_1", "conv5/conv5_1/strided_slice/stack"], "attr": {"shrink_axis_mask": {"i": "1"}, "ellipsis_mask": {"i": "0"}, "begin_mask": {"i": "0"}, "new_axis_mask": {"i": "0"}, "end_mask": {"i": "0"}, "T": {"type": "DT_INT32"}, "Index": {"type": "DT_INT32"}}}, {"name": "strided_slice", "op": "StridedSlice", "input": ["aspp/conv1_2/Shape", "conv5/conv5_1/strided_slice/stack", "conv5/conv5_1/strided_slice/stack_1", "conv5/conv5_1/strided_slice/stack"], "attr": {"shrink_axis_mask": {"i": "1"}, "ellipsis_mask": {"i": "0"}, "begin_mask": {"i": "0"}, "new_axis_mask": {"i": "0"}, "end_mask": {"i": "0"}, "Index": {"type": "DT_INT32"}, "T": {"type": "DT_INT32"}}}, {"name": "aspp/conv1_5/Conv2D", "op": "Conv2D", "input": ["Mean", "aspp/conv1_5/kernel"], "attr": {"data_format": {"s": "TkhXQw=="}, "strides": {"list": {"i": ["1", "1", "1", "1"]}}, "use_cudnn_on_gpu": {"b": true}, "padding": {"s": "VkFMSUQ="}, "dilations": {"list": {"i": ["1", "1", "1", "1"]}}, "T": {"type": "DT_FLOAT"}}}, {"name": "aspp/conv1_1/BiasAdd", "op": "BiasAdd", "input": ["aspp/conv1_1/Conv2D", "aspp/conv1_1/bias"], "attr": {"data_format": {"s": "TkhXQw=="}, "T": {"type": "DT_FLOAT"}}}, {"name": "ResizeNearestNeighbor/size", "op": "Pack", "input": ["strided_slice", "aspp/conv1_4/strided_slice_1"], "attr": {"T": {"type": "DT_INT32"}, "axis": {"i": "0"}, "N": {"i": "2"}}}, {"name": "aspp/conv1_5/BiasAdd", "op": "BiasAdd", "input": ["aspp/conv1_5/Conv2D", "aspp/conv1_5/bias"], "attr": {"T": {"type": "DT_FLOAT"}, "data_format": {"s": "TkhXQw=="}}}, {"name": "aspp/conv1_1/Relu", "op": "Relu", "input": ["aspp/conv1_1/BiasAdd"], "attr": {"T": {"type": "DT_FLOAT"}}}, {"name": "aspp/conv1_4/required_space_to_batch_paddings/add_1", "op": "Add", "input": ["aspp/conv1_4/required_space_to_batch_paddings/add", "ResizeNearestNeighbor/size"], "attr": {"T": {"type": "DT_INT32"}}}, {"name": "aspp/conv1_3/required_space_to_batch_paddings/add_1", "op": "Add", "input": ["aspp/conv1_3/required_space_to_batch_paddings/add", "ResizeNearestNeighbor/size"], "attr": {"T": {"type": "DT_INT32"}}}, {"name": "aspp/conv1_2/required_space_to_batch_paddings/add_1", "op": "Add", "input": ["aspp/conv1_2/required_space_to_batch_paddings/add", "ResizeNearestNeighbor/size"], "attr": {"T": {"type": "DT_INT32"}}}, {"name": "aspp/conv1_5/Relu", "op": "Relu", "input": ["aspp/conv1_5/BiasAdd"], "attr": {"T": {"type": "DT_FLOAT"}}}, {"name": "aspp/conv1_4/required_space_to_batch_paddings/mod", "op": "FloorMod", "input": ["aspp/conv1_4/required_space_to_batch_paddings/add_1", "aspp/conv1_4/required_space_to_batch_paddings/strided_slice_1/_10__cf__61"], "attr": {"T": {"type": "DT_INT32"}}}, {"name": "aspp/conv1_3/required_space_to_batch_paddings/mod", "op": "FloorMod", "input": ["aspp/conv1_3/required_space_to_batch_paddings/add_1", "aspp/conv1_2/required_space_to_batch_paddings/add"], "attr": {"T": {"type": "DT_INT32"}}}, {"name": "aspp/conv1_2/required_space_to_batch_paddings/mod", "op": "FloorMod", "input": ["aspp/conv1_2/required_space_to_batch_paddings/add_1", "aspp/conv1_2/required_space_to_batch_paddings/strided_slice_1/_2__cf__53"], "attr": {"T": {"type": "DT_INT32"}}}, {"name": "ResizeNearestNeighbor", "op": "ResizeNearestNeighbor", "input": ["aspp/conv1_5/Relu", "ResizeNearestNeighbor/size"], "attr": {"align_corners": {"b": false}, "T": {"type": "DT_FLOAT"}}}, {"name": "aspp/conv1_4/required_space_to_batch_paddings/sub", "op": "Sub", "input": ["aspp/conv1_4/required_space_to_batch_paddings/strided_slice_1/_10__cf__61", "aspp/conv1_4/required_space_to_batch_paddings/mod"], "attr": {"T": {"type": "DT_INT32"}}}, {"name": "aspp/conv1_3/required_space_to_batch_paddings/sub", "op": "Sub", "input": ["aspp/conv1_2/required_space_to_batch_paddings/add", "aspp/conv1_3/required_space_to_batch_paddings/mod"], "attr": {"T": {"type": "DT_INT32"}}}, {"name": "aspp/conv1_2/required_space_to_batch_paddings/sub", "op": "Sub", "input": ["aspp/conv1_2/required_space_to_batch_paddings/strided_slice_1/_2__cf__53", "aspp/conv1_2/required_space_to_batch_paddings/mod"], "attr": {"T": {"type": "DT_INT32"}}}, {"name": "aspp/conv1_4/required_space_to_batch_paddings/mod_1", "op": "FloorMod", "input": ["aspp/conv1_4/required_space_to_batch_paddings/sub", "aspp/conv1_4/required_space_to_batch_paddings/strided_slice_1/_10__cf__61"], "attr": {"T": {"type": "DT_INT32"}}}, {"name": "aspp/conv1_3/required_space_to_batch_paddings/mod_1", "op": "FloorMod", "input": ["aspp/conv1_3/required_space_to_batch_paddings/sub", "aspp/conv1_2/required_space_to_batch_paddings/add"], "attr": {"T": {"type": "DT_INT32"}}}, {"name": "aspp/conv1_2/required_space_to_batch_paddings/mod_1", "op": "FloorMod", "input": ["aspp/conv1_2/required_space_to_batch_paddings/sub", "aspp/conv1_2/required_space_to_batch_paddings/strided_slice_1/_2__cf__53"], "attr": {"T": {"type": "DT_INT32"}}}, {"name": "aspp/conv1_4/required_space_to_batch_paddings/strided_slice_7", "op": "StridedSlice", "input": ["aspp/conv1_4/required_space_to_batch_paddings/mod_1", "conv5/conv5_1/strided_slice/stack", "conv5/conv5_1/strided_slice/stack_1", "conv5/conv5_1/strided_slice/stack"], "attr": {"shrink_axis_mask": {"i": "1"}, "begin_mask": {"i": "0"}, "ellipsis_mask": {"i": "0"}, "new_axis_mask": {"i": "0"}, "end_mask": {"i": "0"}, "T": {"type": "DT_INT32"}, "Index": {"type": "DT_INT32"}}}, {"name": "aspp/conv1_4/required_space_to_batch_paddings/strided_slice_6", "op": "StridedSlice", "input": ["aspp/conv1_4/required_space_to_batch_paddings/mod_1", "conv5/conv5_1/required_space_to_batch_paddings/strided_slice_2/stack", "conv5/conv5_1/strided_slice/stack", "conv5/conv5_1/strided_slice/stack"], "attr": {"shrink_axis_mask": {"i": "1"}, "ellipsis_mask": {"i": "0"}, "begin_mask": {"i": "0"}, "new_axis_mask": {"i": "0"}, "end_mask": {"i": "0"}, "T": {"type": "DT_INT32"}, "Index": {"type": "DT_INT32"}}}, {"name": "aspp/conv1_4/required_space_to_batch_paddings/add_2", "op": "Add", "input": ["aspp/conv1_4/required_space_to_batch_paddings/strided_slice_1/_10__cf__61", "aspp/conv1_4/required_space_to_batch_paddings/mod_1"], "attr": {"T": {"type": "DT_INT32"}}}, {"name": "aspp/conv1_3/required_space_to_batch_paddings/strided_slice_7", "op": "StridedSlice", "input": ["aspp/conv1_3/required_space_to_batch_paddings/mod_1", "conv5/conv5_1/strided_slice/stack", "conv5/conv5_1/strided_slice/stack_1", "conv5/conv5_1/strided_slice/stack"], "attr": {"Index": {"type": "DT_INT32"}, "T": {"type": "DT_INT32"}, "shrink_axis_mask": {"i": "1"}, "begin_mask": {"i": "0"}, "ellipsis_mask": {"i": "0"}, "new_axis_mask": {"i": "0"}, "end_mask": {"i": "0"}}}, {"name": "aspp/conv1_3/required_space_to_batch_paddings/strided_slice_6", "op": "StridedSlice", "input": ["aspp/conv1_3/required_space_to_batch_paddings/mod_1", "conv5/conv5_1/required_space_to_batch_paddings/strided_slice_2/stack", "conv5/conv5_1/strided_slice/stack", "conv5/conv5_1/strided_slice/stack"], "attr": {"Index": {"type": "DT_INT32"}, "T": {"type": "DT_INT32"}, "shrink_axis_mask": {"i": "1"}, "begin_mask": {"i": "0"}, "ellipsis_mask": {"i": "0"}, "new_axis_mask": {"i": "0"}, "end_mask": {"i": "0"}}}, {"name": "aspp/conv1_3/required_space_to_batch_paddings/add_2", "op": "Add", "input": ["aspp/conv1_2/required_space_to_batch_paddings/add", "aspp/conv1_3/required_space_to_batch_paddings/mod_1"], "attr": {"T": {"type": "DT_INT32"}}}, {"name": "aspp/conv1_2/required_space_to_batch_paddings/strided_slice_7", "op": "StridedSlice", "input": ["aspp/conv1_2/required_space_to_batch_paddings/mod_1", "conv5/conv5_1/strided_slice/stack", "conv5/conv5_1/strided_slice/stack_1", "conv5/conv5_1/strided_slice/stack"], "attr": {"shrink_axis_mask": {"i": "1"}, "begin_mask": {"i": "0"}, "ellipsis_mask": {"i": "0"}, "new_axis_mask": {"i": "0"}, "end_mask": {"i": "0"}, "T": {"type": "DT_INT32"}, "Index": {"type": "DT_INT32"}}}, {"name": "aspp/conv1_2/required_space_to_batch_paddings/strided_slice_6", "op": "StridedSlice", "input": ["aspp/conv1_2/required_space_to_batch_paddings/mod_1", "conv5/conv5_1/required_space_to_batch_paddings/strided_slice_2/stack", "conv5/conv5_1/strided_slice/stack", "conv5/conv5_1/strided_slice/stack"], "attr": {"T": {"type": "DT_INT32"}, "Index": {"type": "DT_INT32"}, "shrink_axis_mask": {"i": "1"}, "begin_mask": {"i": "0"}, "ellipsis_mask": {"i": "0"}, "new_axis_mask": {"i": "0"}, "end_mask": {"i": "0"}}}, {"name": "aspp/conv1_2/required_space_to_batch_paddings/add_2", "op": "Add", "input": ["aspp/conv1_2/required_space_to_batch_paddings/strided_slice_1/_2__cf__53", "aspp/conv1_2/required_space_to_batch_paddings/mod_1"], "attr": {"T": {"type": "DT_INT32"}}}, {"name": "aspp/conv1_4/required_space_to_batch_paddings/crops/1", "op": "Pack", "input": ["conv5/conv5_1/required_space_to_batch_paddings/crops/0/0", "aspp/conv1_4/required_space_to_batch_paddings/strided_slice_7"], "attr": {"T": {"type": "DT_INT32"}, "axis": {"i": "0"}, "N": {"i": "2"}}}, {"name": "aspp/conv1_4/required_space_to_batch_paddings/crops/0", "op": "Pack", "input": ["conv5/conv5_1/required_space_to_batch_paddings/crops/0/0", "aspp/conv1_4/required_space_to_batch_paddings/strided_slice_6"], "attr": {"T": {"type": "DT_INT32"}, "axis": {"i": "0"}, "N": {"i": "2"}}}, {"name": "aspp/conv1_4/required_space_to_batch_paddings/strided_slice_5", "op": "StridedSlice", "input": ["aspp/conv1_4/required_space_to_batch_paddings/add_2", "conv5/conv5_1/strided_slice/stack", "conv5/conv5_1/strided_slice/stack_1", "conv5/conv5_1/strided_slice/stack"], "attr": {"shrink_axis_mask": {"i": "1"}, "begin_mask": {"i": "0"}, "ellipsis_mask": {"i": "0"}, "new_axis_mask": {"i": "0"}, "end_mask": {"i": "0"}, "T": {"type": "DT_INT32"}, "Index": {"type": "DT_INT32"}}}, {"name": "aspp/conv1_4/required_space_to_batch_paddings/strided_slice_3", "op": "StridedSlice", "input": ["aspp/conv1_4/required_space_to_batch_paddings/add_2", "conv5/conv5_1/required_space_to_batch_paddings/strided_slice_2/stack", "conv5/conv5_1/strided_slice/stack", "conv5/conv5_1/strided_slice/stack"], "attr": {"shrink_axis_mask": {"i": "1"}, "begin_mask": {"i": "0"}, "ellipsis_mask": {"i": "0"}, "new_axis_mask": {"i": "0"}, "end_mask": {"i": "0"}, "T": {"type": "DT_INT32"}, "Index": {"type": "DT_INT32"}}}, {"name": "aspp/conv1_3/required_space_to_batch_paddings/crops/1", "op": "Pack", "input": ["conv5/conv5_1/required_space_to_batch_paddings/crops/0/0", "aspp/conv1_3/required_space_to_batch_paddings/strided_slice_7"], "attr": {"T": {"type": "DT_INT32"}, "axis": {"i": "0"}, "N": {"i": "2"}}}, {"name": "aspp/conv1_3/required_space_to_batch_paddings/crops/0", "op": "Pack", "input": ["conv5/conv5_1/required_space_to_batch_paddings/crops/0/0", "aspp/conv1_3/required_space_to_batch_paddings/strided_slice_6"], "attr": {"T": {"type": "DT_INT32"}, "axis": {"i": "0"}, "N": {"i": "2"}}}, {"name": "aspp/conv1_3/required_space_to_batch_paddings/strided_slice_5", "op": "StridedSlice", "input": ["aspp/conv1_3/required_space_to_batch_paddings/add_2", "conv5/conv5_1/strided_slice/stack", "conv5/conv5_1/strided_slice/stack_1", "conv5/conv5_1/strided_slice/stack"], "attr": {"begin_mask": {"i": "0"}, "ellipsis_mask": {"i": "0"}, "new_axis_mask": {"i": "0"}, "end_mask": {"i": "0"}, "T": {"type": "DT_INT32"}, "Index": {"type": "DT_INT32"}, "shrink_axis_mask": {"i": "1"}}}, {"name": "aspp/conv1_3/required_space_to_batch_paddings/strided_slice_3", "op": "StridedSlice", "input": ["aspp/conv1_3/required_space_to_batch_paddings/add_2", "conv5/conv5_1/required_space_to_batch_paddings/strided_slice_2/stack", "conv5/conv5_1/strided_slice/stack", "conv5/conv5_1/strided_slice/stack"], "attr": {"T": {"type": "DT_INT32"}, "Index": {"type": "DT_INT32"}, "shrink_axis_mask": {"i": "1"}, "begin_mask": {"i": "0"}, "ellipsis_mask": {"i": "0"}, "new_axis_mask": {"i": "0"}, "end_mask": {"i": "0"}}}, {"name": "aspp/conv1_2/required_space_to_batch_paddings/crops/1", "op": "Pack", "input": ["conv5/conv5_1/required_space_to_batch_paddings/crops/0/0", "aspp/conv1_2/required_space_to_batch_paddings/strided_slice_7"], "attr": {"T": {"type": "DT_INT32"}, "axis": {"i": "0"}, "N": {"i": "2"}}}, {"name": "aspp/conv1_2/required_space_to_batch_paddings/crops/0", "op": "Pack", "input": ["conv5/conv5_1/required_space_to_batch_paddings/crops/0/0", "aspp/conv1_2/required_space_to_batch_paddings/strided_slice_6"], "attr": {"T": {"type": "DT_INT32"}, "axis": {"i": "0"}, "N": {"i": "2"}}}, {"name": "aspp/conv1_2/required_space_to_batch_paddings/strided_slice_5", "op": "StridedSlice", "input": ["aspp/conv1_2/required_space_to_batch_paddings/add_2", "conv5/conv5_1/strided_slice/stack", "conv5/conv5_1/strided_slice/stack_1", "conv5/conv5_1/strided_slice/stack"], "attr": {"shrink_axis_mask": {"i": "1"}, "begin_mask": {"i": "0"}, "ellipsis_mask": {"i": "0"}, "new_axis_mask": {"i": "0"}, "end_mask": {"i": "0"}, "T": {"type": "DT_INT32"}, "Index": {"type": "DT_INT32"}}}, {"name": "aspp/conv1_2/required_space_to_batch_paddings/strided_slice_3", "op": "StridedSlice", "input": ["aspp/conv1_2/required_space_to_batch_paddings/add_2", "conv5/conv5_1/required_space_to_batch_paddings/strided_slice_2/stack", "conv5/conv5_1/strided_slice/stack", "conv5/conv5_1/strided_slice/stack"], "attr": {"shrink_axis_mask": {"i": "1"}, "begin_mask": {"i": "0"}, "ellipsis_mask": {"i": "0"}, "new_axis_mask": {"i": "0"}, "end_mask": {"i": "0"}, "Index": {"type": "DT_INT32"}, "T": {"type": "DT_INT32"}}}, {"name": "aspp/conv1_4/required_space_to_batch_paddings/crops", "op": "Pack", "input": ["aspp/conv1_4/required_space_to_batch_paddings/crops/0", "aspp/conv1_4/required_space_to_batch_paddings/crops/1"], "attr": {"T": {"type": "DT_INT32"}, "axis": {"i": "0"}, "N": {"i": "2"}}}, {"name": "aspp/conv1_4/required_space_to_batch_paddings/paddings/1", "op": "Pack", "input": ["aspp/conv1_4/required_space_to_batch_paddings/strided_slice_2/_11__cf__62", "aspp/conv1_4/required_space_to_batch_paddings/strided_slice_5"], "attr": {"T": {"type": "DT_INT32"}, "axis": {"i": "0"}, "N": {"i": "2"}}}, {"name": "aspp/conv1_4/required_space_to_batch_paddings/paddings/0", "op": "Pack", "input": ["aspp/conv1_4/required_space_to_batch_paddings/strided_slice_2/_11__cf__62", "aspp/conv1_4/required_space_to_batch_paddings/strided_slice_3"], "attr": {"T": {"type": "DT_INT32"}, "axis": {"i": "0"}, "N": {"i": "2"}}}, {"name": "aspp/conv1_3/required_space_to_batch_paddings/crops", "op": "Pack", "input": ["aspp/conv1_3/required_space_to_batch_paddings/crops/0", "aspp/conv1_3/required_space_to_batch_paddings/crops/1"], "attr": {"T": {"type": "DT_INT32"}, "axis": {"i": "0"}, "N": {"i": "2"}}}, {"name": "aspp/conv1_3/required_space_to_batch_paddings/paddings/1", "op": "Pack", "input": ["aspp/conv1_3/required_space_to_batch_paddings/strided_slice_2/_7__cf__58", "aspp/conv1_3/required_space_to_batch_paddings/strided_slice_5"], "attr": {"T": {"type": "DT_INT32"}, "axis": {"i": "0"}, "N": {"i": "2"}}}, {"name": "aspp/conv1_3/required_space_to_batch_paddings/paddings/0", "op": "Pack", "input": ["aspp/conv1_3/required_space_to_batch_paddings/strided_slice_2/_7__cf__58", "aspp/conv1_3/required_space_to_batch_paddings/strided_slice_3"], "attr": {"N": {"i": "2"}, "T": {"type": "DT_INT32"}, "axis": {"i": "0"}}}, {"name": "aspp/conv1_2/required_space_to_batch_paddings/crops", "op": "Pack", "input": ["aspp/conv1_2/required_space_to_batch_paddings/crops/0", "aspp/conv1_2/required_space_to_batch_paddings/crops/1"], "attr": {"T": {"type": "DT_INT32"}, "axis": {"i": "0"}, "N": {"i": "2"}}}, {"name": "aspp/conv1_2/required_space_to_batch_paddings/paddings/1", "op": "Pack", "input": ["aspp/conv1_2/required_space_to_batch_paddings/strided_slice_2/_3__cf__54", "aspp/conv1_2/required_space_to_batch_paddings/strided_slice_5"], "attr": {"T": {"type": "DT_INT32"}, "axis": {"i": "0"}, "N": {"i": "2"}}}, {"name": "aspp/conv1_2/required_space_to_batch_paddings/paddings/0", "op": "Pack", "input": ["aspp/conv1_2/required_space_to_batch_paddings/strided_slice_2/_3__cf__54", "aspp/conv1_2/required_space_to_batch_paddings/strided_slice_3"], "attr": {"axis": {"i": "0"}, "N": {"i": "2"}, "T": {"type": "DT_INT32"}}}, {"name": "aspp/conv1_4/required_space_to_batch_paddings/paddings", "op": "Pack", "input": ["aspp/conv1_4/required_space_to_batch_paddings/paddings/0", "aspp/conv1_4/required_space_to_batch_paddings/paddings/1"], "attr": {"T": {"type": "DT_INT32"}, "axis": {"i": "0"}, "N": {"i": "2"}}}, {"name": "aspp/conv1_3/required_space_to_batch_paddings/paddings", "op": "Pack", "input": ["aspp/conv1_3/required_space_to_batch_paddings/paddings/0", "aspp/conv1_3/required_space_to_batch_paddings/paddings/1"], "attr": {"T": {"type": "DT_INT32"}, "axis": {"i": "0"}, "N": {"i": "2"}}}, {"name": "aspp/conv1_2/required_space_to_batch_paddings/paddings", "op": "Pack", "input": ["aspp/conv1_2/required_space_to_batch_paddings/paddings/0", "aspp/conv1_2/required_space_to_batch_paddings/paddings/1"], "attr": {"T": {"type": "DT_INT32"}, "axis": {"i": "0"}, "N": {"i": "2"}}}, {"name": "aspp/conv1_4/SpaceToBatchND", "op": "SpaceToBatchND", "input": ["concat", "aspp/conv1_4/required_space_to_batch_paddings/strided_slice_1/_10__cf__61", "aspp/conv1_4/required_space_to_batch_paddings/paddings"], "attr": {"Tpaddings": {"type": "DT_INT32"}, "Tblock_shape": {"type": "DT_INT32"}, "T": {"type": "DT_FLOAT"}}}, {"name": "aspp/conv1_3/SpaceToBatchND", "op": "SpaceToBatchND", "input": ["concat", "aspp/conv1_2/required_space_to_batch_paddings/add", "aspp/conv1_3/required_space_to_batch_paddings/paddings"], "attr": {"T": {"type": "DT_FLOAT"}, "Tpaddings": {"type": "DT_INT32"}, "Tblock_shape": {"type": "DT_INT32"}}}, {"name": "aspp/conv1_2/SpaceToBatchND", "op": "SpaceToBatchND", "input": ["concat", "aspp/conv1_2/required_space_to_batch_paddings/strided_slice_1/_2__cf__53", "aspp/conv1_2/required_space_to_batch_paddings/paddings"], "attr": {"T": {"type": "DT_FLOAT"}, "Tpaddings": {"type": "DT_INT32"}, "Tblock_shape": {"type": "DT_INT32"}}}, {"name": "aspp/conv1_4/Conv2D", "op": "Conv2D", "input": ["aspp/conv1_4/SpaceToBatchND", "aspp/conv1_4/kernel"], "attr": {"data_format": {"s": "TkhXQw=="}, "strides": {"list": {"i": ["1", "1", "1", "1"]}}, "use_cudnn_on_gpu": {"b": true}, "padding": {"s": "VkFMSUQ="}, "dilations": {"list": {"i": ["1", "1", "1", "1"]}}, "T": {"type": "DT_FLOAT"}}}, {"name": "aspp/conv1_3/Conv2D", "op": "Conv2D", "input": ["aspp/conv1_3/SpaceToBatchND", "aspp/conv1_3/kernel"], "attr": {"dilations": {"list": {"i": ["1", "1", "1", "1"]}}, "T": {"type": "DT_FLOAT"}, "data_format": {"s": "TkhXQw=="}, "strides": {"list": {"i": ["1", "1", "1", "1"]}}, "use_cudnn_on_gpu": {"b": true}, "padding": {"s": "VkFMSUQ="}}}, {"name": "aspp/conv1_2/Conv2D", "op": "Conv2D", "input": ["aspp/conv1_2/SpaceToBatchND", "aspp/conv1_2/kernel"], "attr": {"dilations": {"list": {"i": ["1", "1", "1", "1"]}}, "T": {"type": "DT_FLOAT"}, "data_format": {"s": "TkhXQw=="}, "strides": {"list": {"i": ["1", "1", "1", "1"]}}, "use_cudnn_on_gpu": {"b": true}, "padding": {"s": "VkFMSUQ="}}}, {"name": "aspp/conv1_4/BatchToSpaceND", "op": "BatchToSpaceND", "input": ["aspp/conv1_4/Conv2D", "aspp/conv1_4/required_space_to_batch_paddings/strided_slice_1/_10__cf__61", "aspp/conv1_4/required_space_to_batch_paddings/crops"], "attr": {"Tblock_shape": {"type": "DT_INT32"}, "Tcrops": {"type": "DT_INT32"}, "T": {"type": "DT_FLOAT"}}}, {"name": "aspp/conv1_3/BatchToSpaceND", "op": "BatchToSpaceND", "input": ["aspp/conv1_3/Conv2D", "aspp/conv1_2/required_space_to_batch_paddings/add", "aspp/conv1_3/required_space_to_batch_paddings/crops"], "attr": {"Tcrops": {"type": "DT_INT32"}, "T": {"type": "DT_FLOAT"}, "Tblock_shape": {"type": "DT_INT32"}}}, {"name": "aspp/conv1_2/BatchToSpaceND", "op": "BatchToSpaceND", "input": ["aspp/conv1_2/Conv2D", "aspp/conv1_2/required_space_to_batch_paddings/strided_slice_1/_2__cf__53", "aspp/conv1_2/required_space_to_batch_paddings/crops"], "attr": {"Tblock_shape": {"type": "DT_INT32"}, "Tcrops": {"type": "DT_INT32"}, "T": {"type": "DT_FLOAT"}}}, {"name": "aspp/conv1_4/BiasAdd", "op": "BiasAdd", "input": ["aspp/conv1_4/BatchToSpaceND", "aspp/conv1_4/bias"], "attr": {"T": {"type": "DT_FLOAT"}, "data_format": {"s": "TkhXQw=="}}}, {"name": "aspp/conv1_3/BiasAdd", "op": "BiasAdd", "input": ["aspp/conv1_3/BatchToSpaceND", "aspp/conv1_3/bias"], "attr": {"data_format": {"s": "TkhXQw=="}, "T": {"type": "DT_FLOAT"}}}, {"name": "aspp/conv1_2/BiasAdd", "op": "BiasAdd", "input": ["aspp/conv1_2/BatchToSpaceND", "aspp/conv1_2/bias"], "attr": {"data_format": {"s": "TkhXQw=="}, "T": {"type": "DT_FLOAT"}}}, {"name": "aspp/conv1_4/Relu", "op": "Relu", "input": ["aspp/conv1_4/BiasAdd"], "attr": {"T": {"type": "DT_FLOAT"}}}, {"name": "aspp/conv1_3/Relu", "op": "Relu", "input": ["aspp/conv1_3/BiasAdd"], "attr": {"T": {"type": "DT_FLOAT"}}}, {"name": "aspp/conv1_2/Relu", "op": "Relu", "input": ["aspp/conv1_2/BiasAdd"], "attr": {"T": {"type": "DT_FLOAT"}}}, {"name": "concat_1", "op": "ConcatV2", "input": ["aspp/conv1_1/Relu", "aspp/conv1_2/Relu", "aspp/conv1_3/Relu", "aspp/conv1_4/Relu", "ResizeNearestNeighbor", "concat/axis"], "attr": {"Tidx": {"type": "DT_INT32"}, "T": {"type": "DT_FLOAT"}, "N": {"i": "5"}}}, {"name": "aspp/conv2/Conv2D", "op": "Conv2D", "input": ["concat_1", "aspp/conv2/kernel"], "attr": {"T": {"type": "DT_FLOAT"}, "data_format": {"s": "TkhXQw=="}, "strides": {"list": {"i": ["1", "1", "1", "1"]}}, "use_cudnn_on_gpu": {"b": true}, "padding": {"s": "U0FNRQ=="}, "dilations": {"list": {"i": ["1", "1", "1", "1"]}}}}, {"name": "aspp/conv2/BiasAdd", "op": "BiasAdd", "input": ["aspp/conv2/Conv2D", "aspp/conv2/bias"], "attr": {"T": {"type": "DT_FLOAT"}, "data_format": {"s": "TkhXQw=="}}}, {"name": "aspp/conv2/Relu", "op": "Relu", "input": ["aspp/conv2/BiasAdd"], "attr": {"T": {"type": "DT_FLOAT"}}}, {"name": "Shape_1", "op": "Shape", "input": ["aspp/conv2/Relu"], "attr": {"T": {"type": "DT_FLOAT"}, "out_type": {"type": "DT_INT32"}}}, {"name": "strided_slice_3", "op": "StridedSlice", "input": ["Shape_1", "conv5/conv5_1/strided_slice/stack_1", "conv5/conv5_1/strided_slice_1/stack_1", "conv5/conv5_1/strided_slice/stack"], "attr": {"end_mask": {"i": "0"}, "Index": {"type": "DT_INT32"}, "T": {"type": "DT_INT32"}, "shrink_axis_mask": {"i": "1"}, "begin_mask": {"i": "0"}, "ellipsis_mask": {"i": "0"}, "new_axis_mask": {"i": "0"}}}, {"name": "strided_slice_2", "op": "StridedSlice", "input": ["Shape_1", "conv5/conv5_1/strided_slice/stack", "conv5/conv5_1/strided_slice/stack_1", "conv5/conv5_1/strided_slice/stack"], "attr": {"end_mask": {"i": "0"}, "T": {"type": "DT_INT32"}, "Index": {"type": "DT_INT32"}, "shrink_axis_mask": {"i": "1"}, "ellipsis_mask": {"i": "0"}, "begin_mask": {"i": "0"}, "new_axis_mask": {"i": "0"}}}, {"name": "mul_3", "op": "Mul", "input": ["strided_slice_3", "conv5/conv5_3/required_space_to_batch_paddings/strided_slice_2/_16__cf__67"], "attr": {"T": {"type": "DT_INT32"}}}, {"name": "mul_2", "op": "Mul", "input": ["strided_slice_2", "conv5/conv5_3/required_space_to_batch_paddings/strided_slice_2/_16__cf__67"], "attr": {"T": {"type": "DT_INT32"}}}, {"name": "ResizeNearestNeighbor_1/size", "op": "Pack", "input": ["mul_2", "mul_3"], "attr": {"T": {"type": "DT_INT32"}, "axis": {"i": "0"}, "N": {"i": "2"}}}, {"name": "ResizeNearestNeighbor_1", "op": "ResizeNearestNeighbor", "input": ["aspp/conv2/Relu", "ResizeNearestNeighbor_1/size"], "attr": {"T": {"type": "DT_FLOAT"}, "align_corners": {"b": false}}}, {"name": "decoder/conv1/Conv2D", "op": "Conv2D", "input": ["ResizeNearestNeighbor_1", "decoder/conv1/kernel"], "attr": {"padding": {"s": "U0FNRQ=="}, "dilations": {"list": {"i": ["1", "1", "1", "1"]}}, "T": {"type": "DT_FLOAT"}, "data_format": {"s": "TkhXQw=="}, "strides": {"list": {"i": ["1", "1", "1", "1"]}}, "use_cudnn_on_gpu": {"b": true}}}, {"name": "decoder/conv1/BiasAdd", "op": "BiasAdd", "input": ["decoder/conv1/Conv2D", "decoder/conv1/bias"], "attr": {"T": {"type": "DT_FLOAT"}, "data_format": {"s": "TkhXQw=="}}}, {"name": "decoder/conv1/Relu", "op": "Relu", "input": ["decoder/conv1/BiasAdd"], "attr": {"T": {"type": "DT_FLOAT"}}}, {"name": "Shape_2", "op": "Shape", "input": ["decoder/conv1/Relu"], "attr": {"T": {"type": "DT_FLOAT"}, "out_type": {"type": "DT_INT32"}}}, {"name": "strided_slice_5", "op": "StridedSlice", "input": ["Shape_2", "conv5/conv5_1/strided_slice/stack_1", "conv5/conv5_1/strided_slice_1/stack_1", "conv5/conv5_1/strided_slice/stack"], "attr": {"shrink_axis_mask": {"i": "1"}, "begin_mask": {"i": "0"}, "ellipsis_mask": {"i": "0"}, "new_axis_mask": {"i": "0"}, "end_mask": {"i": "0"}, "T": {"type": "DT_INT32"}, "Index": {"type": "DT_INT32"}}}, {"name": "strided_slice_4", "op": "StridedSlice", "input": ["Shape_2", "conv5/conv5_1/strided_slice/stack", "conv5/conv5_1/strided_slice/stack_1", "conv5/conv5_1/strided_slice/stack"], "attr": {"begin_mask": {"i": "0"}, "ellipsis_mask": {"i": "0"}, "new_axis_mask": {"i": "0"}, "end_mask": {"i": "0"}, "Index": {"type": "DT_INT32"}, "T": {"type": "DT_INT32"}, "shrink_axis_mask": {"i": "1"}}}, {"name": "mul_5", "op": "Mul", "input": ["strided_slice_5", "conv5/conv5_3/required_space_to_batch_paddings/strided_slice_2/_16__cf__67"], "attr": {"T": {"type": "DT_INT32"}}}, {"name": "mul_4", "op": "Mul", "input": ["strided_slice_4", "conv5/conv5_3/required_space_to_batch_paddings/strided_slice_2/_16__cf__67"], "attr": {"T": {"type": "DT_INT32"}}}, {"name": "ResizeNearestNeighbor_2/size", "op": "Pack", "input": ["mul_4", "mul_5"], "attr": {"T": {"type": "DT_INT32"}, "axis": {"i": "0"}, "N": {"i": "2"}}}, {"name": "ResizeNearestNeighbor_2", "op": "ResizeNearestNeighbor", "input": ["decoder/conv1/Relu", "ResizeNearestNeighbor_2/size"], "attr": {"T": {"type": "DT_FLOAT"}, "align_corners": {"b": false}}}, {"name": "decoder/conv2/Conv2D", "op": "Conv2D", "input": ["ResizeNearestNeighbor_2", "decoder/conv2/kernel"], "attr": {"data_format": {"s": "TkhXQw=="}, "strides": {"list": {"i": ["1", "1", "1", "1"]}}, "use_cudnn_on_gpu": {"b": true}, "padding": {"s": "U0FNRQ=="}, "dilations": {"list": {"i": ["1", "1", "1", "1"]}}, "T": {"type": "DT_FLOAT"}}}, {"name": "decoder/conv2/BiasAdd", "op": "BiasAdd", "input": ["decoder/conv2/Conv2D", "decoder/conv2/bias"], "attr": {"T": {"type": "DT_FLOAT"}, "data_format": {"s": "TkhXQw=="}}}, {"name": "decoder/conv2/Relu", "op": "Relu", "input": ["decoder/conv2/BiasAdd"], "attr": {"T": {"type": "DT_FLOAT"}}}, {"name": "Shape_3", "op": "Shape", "input": ["decoder/conv2/Relu"], "attr": {"T": {"type": "DT_FLOAT"}, "out_type": {"type": "DT_INT32"}}}, {"name": "strided_slice_7", "op": "StridedSlice", "input": ["Shape_3", "conv5/conv5_1/strided_slice/stack_1", "conv5/conv5_1/strided_slice_1/stack_1", "conv5/conv5_1/strided_slice/stack"], "attr": {"Index": {"type": "DT_INT32"}, "T": {"type": "DT_INT32"}, "shrink_axis_mask": {"i": "1"}, "ellipsis_mask": {"i": "0"}, "begin_mask": {"i": "0"}, "new_axis_mask": {"i": "0"}, "end_mask": {"i": "0"}}}, {"name": "strided_slice_6", "op": "StridedSlice", "input": ["Shape_3", "conv5/conv5_1/strided_slice/stack", "conv5/conv5_1/strided_slice/stack_1", "conv5/conv5_1/strided_slice/stack"], "attr": {"begin_mask": {"i": "0"}, "ellipsis_mask": {"i": "0"}, "new_axis_mask": {"i": "0"}, "end_mask": {"i": "0"}, "T": {"type": "DT_INT32"}, "Index": {"type": "DT_INT32"}, "shrink_axis_mask": {"i": "1"}}}, {"name": "mul_7", "op": "Mul", "input": ["strided_slice_7", "conv5/conv5_3/required_space_to_batch_paddings/strided_slice_2/_16__cf__67"], "attr": {"T": {"type": "DT_INT32"}}}, {"name": "mul_6", "op": "Mul", "input": ["strided_slice_6", "conv5/conv5_3/required_space_to_batch_paddings/strided_slice_2/_16__cf__67"], "attr": {"T": {"type": "DT_INT32"}}}, {"name": "ResizeNearestNeighbor_3/size", "op": "Pack", "input": ["mul_6", "mul_7"], "attr": {"axis": {"i": "0"}, "N": {"i": "2"}, "T": {"type": "DT_INT32"}}}, {"name": "ResizeNearestNeighbor_3", "op": "ResizeNearestNeighbor", "input": ["decoder/conv2/Relu", "ResizeNearestNeighbor_3/size"], "attr": {"align_corners": {"b": false}, "T": {"type": "DT_FLOAT"}}}, {"name": "decoder/conv3/Conv2D", "op": "Conv2D", "input": ["ResizeNearestNeighbor_3", "decoder/conv3/kernel"], "attr": {"data_format": {"s": "TkhXQw=="}, "strides": {"list": {"i": ["1", "1", "1", "1"]}}, "use_cudnn_on_gpu": {"b": true}, "padding": {"s": "U0FNRQ=="}, "dilations": {"list": {"i": ["1", "1", "1", "1"]}}, "T": {"type": "DT_FLOAT"}}}, {"name": "decoder/conv3/BiasAdd", "op": "BiasAdd", "input": ["decoder/conv3/Conv2D", "decoder/conv3/bias"], "attr": {"T": {"type": "DT_FLOAT"}, "data_format": {"s": "TkhXQw=="}}}, {"name": "decoder/conv3/Relu", "op": "Relu", "input": ["decoder/conv3/BiasAdd"], "attr": {"T": {"type": "DT_FLOAT"}}}, {"name": "decoder/conv4/Conv2D", "op": "Conv2D", "input": ["decoder/conv3/Relu", "decoder/conv4/kernel"], "attr": {"padding": {"s": "U0FNRQ=="}, "dilations": {"list": {"i": ["1", "1", "1", "1"]}}, "T": {"type": "DT_FLOAT"}, "data_format": {"s": "TkhXQw=="}, "strides": {"list": {"i": ["1", "1", "1", "1"]}}, "use_cudnn_on_gpu": {"b": true}}}, {"name": "decoder/conv4/BiasAdd", "op": "BiasAdd", "input": ["decoder/conv4/Conv2D", "decoder/conv4/bias"], "attr": {"T": {"type": "DT_FLOAT"}, "data_format": {"s": "TkhXQw=="}}}, {"name": "Min", "op": "Min", "input": ["decoder/conv4/BiasAdd", "Min/reduction_indices"], "attr": {"T": {"type": "DT_FLOAT"}, "Tidx": {"type": "DT_INT32"}, "keep_dims": {"b": true}}}, {"name": "sub_1", "op": "Sub", "input": ["decoder/conv4/BiasAdd", "Min"], "attr": {"T": {"type": "DT_FLOAT"}}}, {"name": "Max", "op": "Max", "input": ["sub_1", "Min/reduction_indices"], "attr": {"Tidx": {"type": "DT_INT32"}, "keep_dims": {"b": true}, "T": {"type": "DT_FLOAT"}}}, {"name": "add", "op": "Add", "input": ["add/x", "Max"], "attr": {"T": {"type": "DT_FLOAT"}}}, {"name": "output", "op": "RealDiv", "input": ["sub_1", "add"], "attr": {"T": {"type": "DT_FLOAT"}}}], "library": {}, "versions": {"minConsumer": 12}}, "weightsManifest": [{"paths": ["group1-shard1of6", "group1-shard2of6", "group1-shard3of6", "group1-shard4of6", "group1-shard5of6", "group1-shard6of6"], "weights": [{"name": "Min/reduction_indices", "shape": [3], "dtype": "int32", "quantization": {"min": 1.0, "scale": 0.00784313725490196, "dtype": "uint8"}}, {"name": "decoder/conv4/bias", "shape": [1], "dtype": "float32", "quantization": {"min": 0.0003933992702513933, "scale": 1.0, "dtype": "uint8"}}, {"name": "decoder/conv4/kernel", "shape": [3, 3, 32, 1], "dtype": "float32", "quantization": {"min": -0.1459552750867956, "scale": 0.00121629395905663, "dtype": "uint8"}}, {"name": "decoder/conv3/bias", "shape": [32], "dtype": "float32", "quantization": {"min": -0.013248557526179972, "scale": 5.7353062883895985e-05, "dtype": "uint8"}}, {"name": "decoder/conv3/kernel", "shape": [3, 3, 64, 32], "dtype": "float32", "quantization": {"min": -0.09825004421028437, "scale": 0.000805328231231839, "dtype": "uint8"}}, {"name": "conv5/conv5_3/required_space_to_batch_paddings/strided_slice_2/_16__cf__67", "shape": [], "dtype": "int32", "quantization": {"min": 2.0, "scale": 1.0, "dtype": "uint8"}}, {"name": "conv5/conv5_1/strided_slice/stack", "shape": [1], "dtype": "int32", "quantization": {"min": 1.0, "scale": 1.0, "dtype": "uint8"}}, {"name": "conv5/conv5_1/strided_slice_1/stack_1", "shape": [1], "dtype": "int32", "quantization": {"min": 3.0, "scale": 1.0, "dtype": "uint8"}}, {"name": "conv5/conv5_1/strided_slice/stack_1", "shape": [1], "dtype": "int32", "quantization": {"min": 2.0, "scale": 1.0, "dtype": "uint8"}}, {"name": "decoder/conv2/bias", "shape": [64], "dtype": "float32", "quantization": {"min": -0.007544077452564356, "scale": 6.676174736782616e-05, "dtype": "uint8"}}, {"name": "decoder/conv2/kernel", "shape": [3, 3, 128, 64], "dtype": "float32", "quantization": {"min": -0.07036012761733111, "scale": 0.0005584137112486596, "dtype": "uint8"}}, {"name": "decoder/conv1/bias", "shape": [128], "dtype": "float32", "quantization": {"min": -0.004294595078510396, "scale": 3.578829232091997e-05, "dtype": "uint8"}}, {"name": "decoder/conv1/kernel", "shape": [3, 3, 256, 128], "dtype": "float32", "quantization": {"min": -0.049840591263537314, "scale": 0.0003924456005002938, "dtype": "uint8"}}, {"name": "aspp/conv2/bias", "shape": [256], "dtype": "float32", "quantization": {"min": -0.0036678015975756388, "scale": 2.677227443485868e-05, "dtype": "uint8"}}, {"name": "aspp/conv2/kernel", "shape": [1, 1, 1280, 256], "dtype": "float32", "quantization": {"min": -0.07079382161883746, "scale": 0.0005574316662900588, "dtype": "uint8"}}, {"name": "concat/axis", "shape": [], "dtype": "int32", "quantization": {"min": 3.0, "scale": 1.0, "dtype": "uint8"}}, {"name": "conv5/conv5_3/bias", "shape": [512], "dtype": "float32", "quantization": {"min": -3.3661784845239975, "scale": 0.03145961200489717, "dtype": "uint8"}}, {"name": "conv5/conv5_1/required_space_to_batch_paddings/strided_slice_1/_14__cf__65", "shape": [2], "dtype": "int32", "quantization": {"min": 2.0, "scale": 1.0, "dtype": "uint8"}}, {"name": "conv5/conv5_2/bias", "shape": [512], "dtype": "float32", "quantization": {"min": -5.402378274880204, "scale": 0.02984739378386853, "dtype": "uint8"}}, {"name": "conv5/conv5_1/bias", "shape": [512], "dtype": "float32", "quantization": {"min": -2.5071875478707106, "scale": 0.019587402717739927, "dtype": "uint8"}}, {"name": "conv4/conv4_3/bias", "shape": [512], "dtype": "float32", "quantization": {"min": -1.2025031145881204, "scale": 0.01252607411029292, "dtype": "uint8"}}, {"name": "conv4/conv4_3/kernel", "shape": [3, 3, 512, 512], "dtype": "float32", "quantization": {"min": -0.13526676449121214, "scale": 0.002415477937343074, "dtype": "uint8"}}, {"name": "conv4/conv4_2/bias", "shape": [512], "dtype": "float32", "quantization": {"min": -1.7936511236078598, "scale": 0.017758922015919405, "dtype": "uint8"}}, {"name": "conv4/conv4_2/kernel", "shape": [3, 3, 512, 512], "dtype": "float32", "quantization": {"min": -0.13458411319583072, "scale": 0.002539322890487372, "dtype": "uint8"}}, {"name": "conv4/conv4_1/bias", "shape": [512], "dtype": "float32", "quantization": {"min": -1.2103645773494944, "scale": 0.012607964347390567, "dtype": "uint8"}}, {"name": "conv4/conv4_1/kernel", "shape": [3, 3, 256, 512], "dtype": "float32", "quantization": {"min": -0.1344238721856884, "scale": 0.0027433443303201714, "dtype": "uint8"}}, {"name": "conv3/conv3_3/bias", "shape": [256], "dtype": "float32", "quantization": {"min": -0.6087349045510385, "scale": 0.012951806479809331, "dtype": "uint8"}}, {"name": "conv3/conv3_3/kernel", "shape": [3, 3, 256, 256], "dtype": "float32", "quantization": {"min": -0.23014014258104212, "scale": 0.003540617578169879, "dtype": "uint8"}}, {"name": "conv3/conv3_2/bias", "shape": [256], "dtype": "float32", "quantization": {"min": -1.5000193119049072, "scale": 0.011450529098510742, "dtype": "uint8"}}, {"name": "conv3/conv3_2/kernel", "shape": [3, 3, 256, 256], "dtype": "float32", "quantization": {"min": -0.15428191528600804, "scale": 0.0028570725052964453, "dtype": "uint8"}}, {"name": "conv3/conv3_1/bias", "shape": [256], "dtype": "float32", "quantization": {"min": -1.011998748779297, "scale": 0.009921556360581342, "dtype": "uint8"}}, {"name": "conv3/conv3_1/kernel", "shape": [3, 3, 128, 256], "dtype": "float32", "quantization": {"min": -0.21553851377730276, "scale": 0.0034764276415693994, "dtype": "uint8"}}, {"name": "conv2/conv2_2/bias", "shape": [128], "dtype": "float32", "quantization": {"min": -2.1982048118815705, "scale": 0.014274057220010197, "dtype": "uint8"}}, {"name": "conv2/conv2_2/kernel", "shape": [3, 3, 128, 128], "dtype": "float32", "quantization": {"min": -0.26787728234833363, "scale": 0.0033908516752953624, "dtype": "uint8"}}, {"name": "conv2/conv2_1/bias", "shape": [128], "dtype": "float32", "quantization": {"min": -0.5096218688815248, "scale": 0.005791157600926418, "dtype": "uint8"}}, {"name": "conv2/conv2_1/kernel", "shape": [3, 3, 64, 128], "dtype": "float32", "quantization": {"min": -0.29056108932869107, "scale": 0.0030585377824072744, "dtype": "uint8"}}, {"name": "conv1/conv1_2/bias", "shape": [64], "dtype": "float32", "quantization": {"min": -1.9805442973679186, "scale": 0.013849960121453977, "dtype": "uint8"}}, {"name": "conv1/conv1_2/kernel", "shape": [3, 3, 64, 64], "dtype": "float32", "quantization": {"min": -0.24227283117817897, "scale": 0.002144007355559106, "dtype": "uint8"}}, {"name": "conv1/conv1_1/bias", "shape": [64], "dtype": "float32", "quantization": {"min": -0.3288790361554015, "scale": 0.014949047097972795, "dtype": "uint8"}}, {"name": "conv1/conv1_1/kernel", "shape": [3, 3, 3, 64], "dtype": "float32", "quantization": {"min": -0.6392371439466289, "scale": 0.004879672854554419, "dtype": "uint8"}}, {"name": "Reshape/_0__cf__51", "shape": [1, 1, 1, 3], "dtype": "float32", "quantization": {"min": 103.93900299072266, "scale": 0.07741567574295344, "dtype": "uint8"}}, {"name": "aspp/conv1_2/required_space_to_batch_paddings/strided_slice_1/_2__cf__53", "shape": [2], "dtype": "int32", "quantization": {"min": 4.0, "scale": 1.0, "dtype": "uint8"}}, {"name": "conv5/conv5_1/required_space_to_batch_paddings/crops/0/0", "shape": [], "dtype": "int32", "quantization": {"min": 0.0, "scale": 1.0, "dtype": "uint8"}}, {"name": "conv5/conv5_1/required_space_to_batch_paddings/strided_slice_2/stack", "shape": [1], "dtype": "int32", "quantization": {"min": 0.0, "scale": 1.0, "dtype": "uint8"}}, {"name": "conv5/conv5_1/kernel", "shape": [3, 3, 512, 512], "dtype": "float32", "quantization": {"min": -0.12933158687516755, "scale": 0.0020859933366962507, "dtype": "uint8"}}, {"name": "conv5/conv5_2/kernel", "shape": [3, 3, 512, 512], "dtype": "float32", "quantization": {"min": -0.14716529267675735, "scale": 0.0015824225019006168, "dtype": "uint8"}}, {"name": "conv5/conv5_3/kernel", "shape": [3, 3, 512, 512], "dtype": "float32", "quantization": {"min": -0.08436419803137872, "scale": 0.001095638935472451, "dtype": "uint8"}}, {"name": "aspp/conv1_5/bias", "shape": [256], "dtype": "float32", "quantization": {"min": -0.003627475922671603, "scale": 2.707071584083286e-05, "dtype": "uint8"}}, {"name": "aspp/conv1_5/kernel", "shape": [1, 1, 1280, 256], "dtype": "float32", "quantization": {"min": -0.06847012089748009, "scale": 0.0005349228195115632, "dtype": "uint8"}}, {"name": "Mean/reduction_indices", "shape": [2], "dtype": "int32", "quantization": {"min": 1.0, "scale": 0.00392156862745098, "dtype": "uint8"}}, {"name": "aspp/conv1_4/bias", "shape": [256], "dtype": "float32", "quantization": {"min": -0.0031267461257384107, "scale": 2.8424964779440095e-05, "dtype": "uint8"}}, {"name": "aspp/conv1_4/required_space_to_batch_paddings/strided_slice_1/_10__cf__61", "shape": [2], "dtype": "int32", "quantization": {"min": 12.0, "scale": 1.0, "dtype": "uint8"}}, {"name": "aspp/conv1_4/required_space_to_batch_paddings/add", "shape": [2], "dtype": "int32", "quantization": {"min": 24.0, "scale": 1.0, "dtype": "uint8"}}, {"name": "aspp/conv1_4/kernel", "shape": [3, 3, 1280, 256], "dtype": "float32", "quantization": {"min": -0.031020752011853104, "scale": 0.00023679963367826797, "dtype": "uint8"}}, {"name": "aspp/conv1_4/required_space_to_batch_paddings/strided_slice_2/_11__cf__62", "shape": [], "dtype": "int32", "quantization": {"min": 12.0, "scale": 1.0, "dtype": "uint8"}}, {"name": "aspp/conv1_3/bias", "shape": [256], "dtype": "float32", "quantization": {"min": -0.003505608874062697, "scale": 2.8734498967727026e-05, "dtype": "uint8"}}, {"name": "aspp/conv1_2/required_space_to_batch_paddings/add", "shape": [2], "dtype": "int32", "quantization": {"min": 8.0, "scale": 1.0, "dtype": "uint8"}}, {"name": "aspp/conv1_3/required_space_to_batch_paddings/add", "shape": [2], "dtype": "int32", "quantization": {"min": 16.0, "scale": 1.0, "dtype": "uint8"}}, {"name": "aspp/conv1_3/kernel", "shape": [3, 3, 1280, 256], "dtype": "float32", "quantization": {"min": -0.03390141697052647, "scale": 0.00025112160718908496, "dtype": "uint8"}}, {"name": "aspp/conv1_3/required_space_to_batch_paddings/strided_slice_2/_7__cf__58", "shape": [], "dtype": "int32", "quantization": {"min": 8.0, "scale": 1.0, "dtype": "uint8"}}, {"name": "aspp/conv1_2/bias", "shape": [256], "dtype": "float32", "quantization": {"min": -0.0032675892936394496, "scale": 2.2228498596186732e-05, "dtype": "uint8"}}, {"name": "aspp/conv1_2/kernel", "shape": [3, 3, 1280, 256], "dtype": "float32", "quantization": {"min": -0.030482881954487635, "scale": 0.00024192763455942567, "dtype": "uint8"}}, {"name": "aspp/conv1_2/required_space_to_batch_paddings/strided_slice_2/_3__cf__54", "shape": [], "dtype": "int32", "quantization": {"min": 4.0, "scale": 1.0, "dtype": "uint8"}}, {"name": "aspp/conv1_1/bias", "shape": [256], "dtype": "float32", "quantization": {"min": -0.004832147061824798, "scale": 4.314417019486427e-05, "dtype": "uint8"}}, {"name": "aspp/conv1_1/kernel", "shape": [1, 1, 1280, 256], "dtype": "float32", "quantization": {"min": -0.0703916765311185, "scale": 0.0005542651695363661, "dtype": "uint8"}}, {"name": "add/x", "shape": [], "dtype": "float32", "quantization": {"min": 1.0000000116860974e-07, "scale": 1.0, "dtype": "uint8"}}]}]}